…
    warmup_iters=1500,
    warmup_ratio=1e-06,
    power=1.0,
    min_lr=0.0,
    by_epoch=False)
runner = dict(type='IterBasedRunner', max_iters=160000)
checkpoint_config = dict(by_epoch=False, interval=16000)
evaluation = dict(interval=16000, metric='mIoU', gpu_collect=True)
norm_cfg = dict(type='SyncBN', requires_grad=True)
LR_MULT = 5.0
BACKBONE_LR_MULT = 5.0
work_dir = './work_dirs/9_ade20k_upernet_swin_large_160k_larry_v1_6_64_lr5-5_dp02'
gpu_ids = range(0, 1)

2023-11-15 21:18:23,708 - mmseg - INFO - EncoderDecoder(
  (backbone): SwinTransformer_Larry_v1_6_64(
    (patch_embed): PatchEmbed(
      (proj): Conv2d(3, 192, kernel_size=(4, 4), stride=(4, 4))
      (norm): LayerNorm((192,), eps=1e-05, elementwise_affine=True)
    )
    (pos_drop): Dropout(p=0.0, inplace=False)
    (layers): ModuleList(
      (0): BasicLayer(
        (blocks): ModuleList(
          (0): SwinTransformerBlock(
            (norm1): LayerNorm((192,), eps=1e-05, elementwise_affine=True)
            (attn): WindowAttention(
              (qkv): Linear(in_features=192, out_features=576, bias=True)
              (attn_drop): Dropout(p=0.0, inplace=False)
              (proj): Linear(in_features=192, out_features=192, bias=True)
              (proj_drop): Dropout(p=0.0, inplace=False)
              (softmax): Softmax(dim=-1)
            )
            (drop_path): Identity()
            (norm2): LayerNorm((192,), eps=1e-05, elementwise_affine=True)
            (mlp): Mlp(
              (fc1): Linear(in_features=192, out_features=768, bias=True)
              (act): GELU()
              (fc2): Linear(in_features=768, out_features=192, bias=True)
              (drop): Dropout(p=0.0, inplace=False)
            )
            (my_module_1): Adapter_Attn(
              (project1): Linear(in_features=192, out_features=64, bias=True)
              (project2): Linear(in_features=64, out_features=192, bias=True)
              (dropout): Dropout(p=0.1, inplace=False)
              (adapter_conv): Adapter_Conv(
                (conv1): Conv2d(64, 64, kernel_size=(3, 3), stride=(1, 1), padding=(1, 1), groups=64)
                (conv2): Conv2d(64, 64, kernel_size=(5, 5), stride=(1, 1), padding=(2, 2), groups=64)
                (conv3): Conv2d(64, 64, kernel_size=(7, 7), stride=(1, 1), padding=(3, 3), groups=64)
                (projector): Conv2d(64, 64, kernel_size=(1, 1), stride=(1, 1))
              )
              (norm): LayerNorm((192,), eps=1e-05, elementwise_affine=True)
            )
            (my_module_2): Adapter_Attn(
              (project1): Linear(in_features=192, out_features=64, bias=True)
              (project2): Linear(in_features=64, out_features=192, bias=True)
              (dropout): Dropout(p=0.1, inplace=False)
              (adapter_conv): Adapter_Conv(
                (conv1): Conv2d(64, 64, kernel_size=(3, 3), stride=(1, 1), padding=(1, 1), groups=64)
                (conv2): Conv2d(64, 64, kernel_size=(5, 5), stride=(1, 1), padding=(2, 2), groups=64)
                (conv3): Conv2d(64, 64, kernel_size=(7, 7), stride=(1, 1), padding=(3, 3), groups=64)
                (projector): Conv2d(64, 64, kernel_size=(1, 1), stride=(1, 1))
              )
              (norm): LayerNorm((192,), eps=1e-05, elementwise_affine=True)
            )
          )
          (1): SwinTransformerBlock(
            (norm1): LayerNorm((192,), eps=1e-05, elementwise_affine=True)
            (attn): WindowAttention(
              (qkv): Linear(in_features=192, out_features=576, bias=True)
              (attn_drop): Dropout(p=0.0, inplace=False)
              (proj): Linear(in_features=192, out_features=192, bias=True)
              (proj_drop): Dropout(p=0.0, inplace=False)
              (softmax): Softmax(dim=-1)
            )
            (drop_path): DropPath(drop_prob=0.009)
            (norm2): LayerNorm((192,), eps=1e-05, elementwise_affine=True)
            (mlp): Mlp(
              (fc1): Linear(in_features=192, out_features=768, bias=True)
              (act): GELU()
              (fc2): Linear(in_features=768, out_features=192, bias=True)
              (drop): Dropout(p=0.0, inplace=False)
            )
            (my_module_1): Adapter_Attn(
              (project1): Linear(in_features=192, out_features=64, bias=True)
              (project2): Linear(in_features=64, out_features=192, bias=True)
              (dropout): Dropout(p=0.1, inplace=False)
              (adapter_conv): Adapter_Conv(
                (conv1): Conv2d(64, 64, kernel_size=(3, 3), stride=(1, 1), padding=(1, 1), groups=64)
                (conv2): Conv2d(64, 64, kernel_size=(5, 5), stride=(1, 1), padding=(2, 2), groups=64)
                (conv3): Conv2d(64, 64, kernel_size=(7, 7), stride=(1, 1), padding=(3, 3), groups=64)
                (projector): Conv2d(64, 64, kernel_size=(1, 1), stride=(1, 1))
              )
              (norm): LayerNorm((192,), eps=1e-05, elementwise_affine=True)
            )
            (my_module_2): Adapter_Attn(
              (project1): Linear(in_features=192, out_features=64, bias=True)
              (project2): Linear(in_features=64, out_features=192, bias=True)
              (dropout): Dropout(p=0.1, inplace=False)
              (adapter_conv): Adapter_Conv(
                (conv1): Conv2d(64, 64, kernel_size=(3, 3), stride=(1, 1), padding=(1, 1), groups=64)
                (conv2): Conv2d(64, 64, kernel_size=(5, 5), stride=(1, 1), padding=(2, 2), groups=64)
                (conv3): Conv2d(64, 64, kernel_size=(7, 7), stride=(1, 1), padding=(3, 3), groups=64)
                (projector): Conv2d(64, 64, kernel_size=(1, 1), stride=(1, 1))
              )
              (norm): LayerNorm((192,), eps=1e-05, elementwise_affine=True)
            )
          )
        )
        (downsample): PatchMerging(
          (reduction): Linear(in_features=768, out_features=384, bias=False)
          (norm): LayerNorm((768,), eps=1e-05, elementwise_affine=True)
        )
      )
      (1): BasicLayer(
        (blocks): ModuleList(
          (0): SwinTransformerBlock(
            (norm1): LayerNorm((384,), eps=1e-05, elementwise_affine=True)
            (attn): WindowAttention(
              (qkv): Linear(in_features=384, out_features=1152, bias=True)
              (attn_drop): Dropout(p=0.0, inplace=False)
              (proj): Linear(in_features=384, out_features=384, bias=True)
              (proj_drop): Dropout(p=0.0, inplace=False)
              (softmax): Softmax(dim=-1)
            )
            (drop_path): DropPath(drop_prob=0.017)
            (norm2): LayerNorm((384,), eps=1e-05, elementwise_affine=True)
            (mlp): Mlp(
              (fc1): Linear(in_features=384, out_features=1536, bias=True)
              (act): GELU()
              (fc2): Linear(in_features=1536, out_features=384, bias=True)
              (drop): Dropout(p=0.0, inplace=False)
            )
            (my_module_1): Adapter_Attn(
              (project1): Linear(in_features=384, out_features=64, bias=True)
              (project2): Linear(in_features=64, out_features=384, bias=True)
              (dropout): Dropout(p=0.1, inplace=False)
              (adapter_conv): Adapter_Conv(
                (conv1): Conv2d(64, 64, kernel_size=(3, 3), stride=(1, 1), padding=(1, 1), groups=64)
                (conv2): Conv2d(64, 64, kernel_size=(5, 5), stride=(1, 1), padding=(2, 2), groups=64)
                (conv3): Conv2d(64, 64, kernel_size=(7, 7), stride=(1, 1), padding=(3, 3), groups=64)
                (projector): Conv2d(64, 64, kernel_size=(1, 1), stride=(1, 1))
              )
              (norm): LayerNorm((384,), eps=1e-05, elementwise_affine=True)
            )
            (my_module_2): Adapter_Attn(
              (project1): Linear(in_features=384, out_features=64, bias=True)
              (project2): Linear(in_features=64, out_features=384, bias=True)
              (dropout): Dropout(p=0.1, inplace=False)
              (adapter_conv): Adapter_Conv(
                (conv1): Conv2d(64, 64, kernel_size=(3, 3), stride=(1, 1), padding=(1, 1), groups=64)
                (conv2): Conv2d(64, 64, kernel_size=(5, 5), stride=(1, 1), padding=(2, 2), groups=64)
                (conv3): Conv2d(64, 64, kernel_size=(7, 7), stride=(1, 1), padding=(3, 3), groups=64)
                (projector): Conv2d(64, 64, kernel_size=(1, 1), stride=(1, 1))
              )
              (norm): LayerNorm((384,), eps=1e-05, elementwise_affine=True)
            )
          )
          (1): SwinTransformerBlock(
            (norm1): LayerNorm((384,), eps=1e-05, elementwise_affine=True)
            (attn): WindowAttention(
              (qkv): Linear(in_features=384, out_features=1152, bias=True)
              (attn_drop): Dropout(p=0.0, inplace=False)
              (proj): Linear(in_features=384, out_features=384, bias=True)
              (proj_drop): Dropout(p=0.0, inplace=False)
              (softmax): Softmax(dim=-1)
            )
            (drop_path): DropPath(drop_prob=0.026)
            (norm2): LayerNorm((384,), eps=1e-05, elementwise_affine=True)
            (mlp): Mlp(
              (fc1): Linear(in_features=384, out_features=1536, bias=True)
              (act): GELU()
              (fc2): Linear(in_features=1536, out_features=384, bias=True)
              (drop): Dropout(p=0.0, inplace=False)
            )
            (my_module_1): Adapter_Attn(
              (project1): Linear(in_features=384, out_features=64, bias=True)
              (project2): Linear(in_features=64, out_features=384, bias=True)
              (dropout): Dropout(p=0.1, inplace=False)
              (adapter_conv): Adapter_Conv(
                (conv1): Conv2d(64, 64, kernel_size=(3, 3), stride=(1, 1), padding=(1, 1), groups=64)
                (conv2): Conv2d(64, 64, kernel_size=(5, 5), stride=(1, 1), padding=(2, 2), groups=64)
                (conv3): Conv2d(64, 64, kernel_size=(7, 7), stride=(1, 1), padding=(3, 3), groups=64)
                (projector): Conv2d(64, 64, kernel_size=(1, 1), stride=(1, 1))
              )
              (norm): LayerNorm((384,), eps=1e-05, elementwise_affine=True)
            )
            (my_module_2): Adapter_Attn(
              (project1): Linear(in_features=384, out_features=64, bias=True)
              (project2): Linear(in_features=64, out_features=384, bias=True)
              (dropout): Dropout(p=0.1, inplace=False)
              (adapter_conv): Adapter_Conv(
                (conv1): Conv2d(64, 64, kernel_size=(3, 3), stride=(1, 1), padding=(1, 1), groups=64)
                (conv2): Conv2d(64, 64, kernel_size=(5, 5), stride=(1, 1), padding=(2, 2), groups=64)
                (conv3): Conv2d(64, 64, kernel_size=(7, 7), stride=(1, 1), padding=(3, 3), groups=64)
                (projector): Conv2d(64, 64, kernel_size=(1, 1), stride=(1, 1))
              )
              (norm): LayerNorm((384,), eps=1e-05, elementwise_affine=True)
            )
          )
        )
        (downsample): PatchMerging(
          (reduction): Linear(in_features=1536, out_features=768, bias=False)
          (norm): LayerNorm((1536,), eps=1e-05, elementwise_affine=True)
        )
      )
      (2): BasicLayer(
        (blocks): ModuleList(
          (0): SwinTransformerBlock(
            (norm1): LayerNorm((768,), eps=1e-05, elementwise_affine=True)
            (attn): WindowAttention(
              (qkv): Linear(in_features=768, out_features=2304, bias=True)
              (attn_drop): Dropout(p=0.0, inplace=False)
              (proj): Linear(in_features=768, out_features=768, bias=True)
              (proj_drop): Dropout(p=0.0, inplace=False)
              (softmax): Softmax(dim=-1)
            )
            (drop_path): DropPath(drop_prob=0.035)
            (norm2): LayerNorm((768,), eps=1e-05, elementwise_affine=True)
            (mlp): Mlp(
              (fc1): Linear(in_features=768, out_features=3072, bias=True)
              (act): GELU()
              (fc2): Linear(in_features=3072, out_features=768, bias=True)
              (drop): Dropout(p=0.0, inplace=False)
            )
            (my_module_1): Adapter_Attn(
              (project1): Linear(in_features=768, out_features=64, bias=True)
              (project2): Linear(in_features=64, out_features=768, bias=True)
              (dropout): Dropout(p=0.1, inplace=False)
              (adapter_conv): Adapter_Conv(
                (conv1): Conv2d(64, 64, kernel_size=(3, 3), stride=(1, 1), padding=(1, 1), groups=64)
                (conv2): Conv2d(64, 64, kernel_size=(5, 5), stride=(1, 1), padding=(2, 2), groups=64)
                (conv3): Conv2d(64, 64, kernel_size=(7, 7), stride=(1, 1), padding=(3, 3), groups=64)
                (projector): Conv2d(64, 64, kernel_size=(1, 1), stride=(1, 1))
              )
              (norm): LayerNorm((768,), eps=1e-05, elementwise_affine=True)
            )
            (my_module_2): Adapter_Attn(
              (project1): Linear(in_features=768, out_features=64, bias=True)
              (project2): Linear(in_features=64, out_features=768, bias=True)
              (dropout): Dropout(p=0.1, inplace=False)
              (adapter_conv): Adapter_Conv(
                (conv1): Conv2d(64, 64, kernel_size=(3, 3), stride=(1, 1), padding=(1, 1), groups=64)
                (conv2): Conv2d(64, 64, kernel_size=(5, 5), stride=(1, 1), padding=(2, 2), groups=64)
                (conv3): Conv2d(64, 64, kernel_size=(7, 7), stride=(1, 1), padding=(3, 3), groups=64)
                (projector): Conv2d(64, 64, kernel_size=(1, 1), stride=(1, 1))
              )
              (norm): LayerNorm((768,), eps=1e-05, elementwise_affine=True)
            )
          )
          (1): SwinTransformerBlock(
            (norm1): LayerNorm((768,), eps=1e-05, elementwise_affine=True)
            (attn): WindowAttention(
              (qkv): Linear(in_features=768, out_features=2304, bias=True)
              (attn_drop): Dropout(p=0.0, inplace=False)
              (proj): Linear(in_features=768, out_features=768, bias=True)
              (proj_drop): Dropout(p=0.0, inplace=False)
              (softmax): Softmax(dim=-1)
            )
            (drop_path): DropPath(drop_prob=0.043)
            (norm2): LayerNorm((768,), eps=1e-05, elementwise_affine=True)
            (mlp): Mlp(
              (fc1): Linear(in_features=768, out_features=3072, bias=True)
              (act): GELU()
              (fc2): Linear(in_features=3072, out_features=768, bias=True)
              (drop): Dropout(p=0.0, inplace=False)
            )
            (my_module_1): Adapter_Attn(
              (project1): Linear(in_features=768, out_features=64, bias=True)
              (project2): Linear(in_features=64, out_features=768, bias=True)
              (dropout): Dropout(p=0.1, inplace=False)
              (adapter_conv): Adapter_Conv(
                (conv1): Conv2d(64, 64, kernel_size=(3, 3), stride=(1, 1), padding=(1, 1), groups=64)
                (conv2): Conv2d(64, 64, kernel_size=(5, 5), stride=(1, 1), padding=(2, 2), groups=64)
                (conv3): Conv2d(64, 64, kernel_size=(7, 7), stride=(1, 1), padding=(3, 3), groups=64)
                (projector): Conv2d(64, 64, kernel_size=(1, 1), stride=(1, 1))
              )
              (norm): LayerNorm((768,), eps=1e-05, elementwise_affine=True)
            )
            (my_module_2): Adapter_Attn(
              (project1): Linear(in_features=768, out_features=64, bias=True)
              (project2): Linear(in_features=64, out_features=768, bias=True)
              (dropout): Dropout(p=0.1, inplace=False)
              (adapter_conv): Adapter_Conv(
                (conv1): Conv2d(64, 64, kernel_size=(3, 3), stride=(1, 1), padding=(1, 1), groups=64)
                (conv2): Conv2d(64, 64, kernel_size=(5, 5), stride=(1, 1), padding=(2, 2), groups=64)
                (conv3): Conv2d(64, 64, kernel_size=(7, 7), stride=(1, 1), padding=(3, 3), groups=64)
                (projector): Conv2d(64, 64, kernel_size=(1, 1), stride=(1, 1))
              )
              (norm): LayerNorm((768,), eps=1e-05, elementwise_affine=True)
            )
          )
          (2): SwinTransformerBlock(
            (norm1): LayerNorm((768,), eps=1e-05, elementwise_affine=True)
            (attn): WindowAttention(
              (qkv): Linear(in_features=768, out_features=2304, bias=True)
              (attn_drop): Dropout(p=0.0, inplace=False)
              (proj): Linear(in_features=768, out_features=768, bias=True)
              (proj_drop): Dropout(p=0.0, inplace=False)
              (softmax): Softmax(dim=-1)
            )
            (drop_path): DropPath(drop_prob=0.052)
            (norm2): LayerNorm((768,), eps=1e-05, elementwise_affine=True)
            (mlp): Mlp(
              (fc1): Linear(in_features=768, out_features=3072, bias=True)
              (act): GELU()
              (fc2): Linear(in_features=3072, out_features=768, bias=True)
              (drop): Dropout(p=0.0, inplace=False)
            )
            (my_module_1): Adapter_Attn(
              (project1): Linear(in_features=768, out_features=64, bias=True)
              (project2): Linear(in_features=64, out_features=768, bias=True)
              (dropout): Dropout(p=0.1, inplace=False)
              (adapter_conv): Adapter_Conv(
                (conv1): Conv2d(64, 64, kernel_size=(3, 3), stride=(1, 1), padding=(1, 1), groups=64)
                (conv2): Conv2d(64, 64, kernel_size=(5, 5), stride=(1, 1), padding=(2, 2), groups=64)
                (conv3): Conv2d(64, 64, kernel_size=(7, 7), stride=(1, 1), padding=(3, 3), groups=64)
                (projector): Conv2d(64, 64, kernel_size=(1, 1), stride=(1, 1))
              )
              (norm): LayerNorm((768,), eps=1e-05, elementwise_affine=True)
            )
            (my_module_2): Adapter_Attn(
              (project1): Linear(in_features=768, out_features=64, bias=True)
              (project2): Linear(in_features=64, out_features=768, bias=True)
              (dropout): Dropout(p=0.1, inplace=False)
              (adapter_conv): Adapter_Conv(
                (conv1): Conv2d(64, 64, kernel_size=(3, 3), stride=(1, 1), padding=(1, 1), groups=64)
                (conv2): Conv2d(64, 64, kernel_size=(5, 5), stride=(1, 1), padding=(2, 2), groups=64)
                (conv3): Conv2d(64, 64, kernel_size=(7, 7), stride=(1, 1), padding=(3, 3), groups=64)
                (projector): Conv2d(64, 64, kernel_size=(1, 1), stride=(1, 1))
              )
              (norm): LayerNorm((768,), eps=1e-05, elementwise_affine=True)
            )
          )
          (3): SwinTransformerBlock(
            (norm1): LayerNorm((768,), eps=1e-05, elementwise_affine=True)
            (attn): WindowAttention(
              (qkv): Linear(in_features=768, out_features=2304, bias=True)
              (attn_drop): Dropout(p=0.0, inplace=False)
              (proj): Linear(in_features=768, out_features=768, bias=True)
              (proj_drop): Dropout(p=0.0, inplace=False)
              (softmax): Softmax(dim=-1)
            )
            (drop_path): DropPath(drop_prob=0.061)
            (norm2): LayerNorm((768,), eps=1e-05, elementwise_affine=True)
            (mlp): Mlp(
              (fc1): Linear(in_features=768, out_features=3072, bias=True)
              (act): GELU()
              (fc2): Linear(in_features=3072, out_features=768, bias=True)
              (drop): Dropout(p=0.0, inplace=False)
            )
            (my_module_1): Adapter_Attn(
              (project1): Linear(in_features=768, out_features=64, bias=True)
              (project2): Linear(in_features=64, out_features=768, bias=True)
              (dropout): Dropout(p=0.1, inplace=False)
              (adapter_conv): Adapter_Conv(
                (conv1): Conv2d(64, 64, kernel_size=(3, 3), stride=(1, 1), padding=(1, 1), groups=64)
                (conv2): Conv2d(64, 64, kernel_size=(5, 5), stride=(1, 1), padding=(2, 2), groups=64)
                (conv3): Conv2d(64, 64, kernel_size=(7, 7), stride=(1, 1), padding=(3, 3), groups=64)
                (projector): Conv2d(64, 64, kernel_size=(1, 1), stride=(1, 1))
              )
              (norm): LayerNorm((768,), eps=1e-05, elementwise_affine=True)
            )
            (my_module_2): Adapter_Attn(
              (project1): Linear(in_features=768, out_features=64, bias=True)
              (project2): Linear(in_features=64, out_features=768, bias=True)
              (dropout): Dropout(p=0.1, inplace=False)
              (adapter_conv): Adapter_Conv(
                (conv1): Conv2d(64, 64, kernel_size=(3, 3), stride=(1, 1), padding=(1, 1), groups=64)
                (conv2): Conv2d(64, 64, kernel_size=(5, 5), stride=(1, 1), padding=(2, 2), groups=64)
                (conv3): Conv2d(64, 64, kernel_size=(7, 7), stride=(1, 1), padding=(3, 3), groups=64)
                (projector): Conv2d(64, 64, kernel_size=(1, 1), stride=(1, 1))
              )
              (norm): LayerNorm((768,), eps=1e-05, elementwise_affine=True)
            )
          )
          (4): SwinTransformerBlock(
            (norm1): LayerNorm((768,), eps=1e-05, elementwise_affine=True)
            (attn): WindowAttention(
              (qkv): Linear(in_features=768, out_features=2304, bias=True)
              (attn_drop): Dropout(p=0.0, inplace=False)
              (proj): Linear(in_features=768, out_features=768, bias=True)
              (proj_drop): Dropout(p=0.0, inplace=False)
              (softmax): Softmax(dim=-1)
            )
            (drop_path): DropPath(drop_prob=0.070)
            (norm2): LayerNorm((768,), eps=1e-05, elementwise_affine=True)
            (mlp): Mlp(
              (fc1): Linear(in_features=768, out_features=3072, bias=True)
              (act): GELU()
              (fc2): Linear(in_features=3072, out_features=768, bias=True)
              (drop): Dropout(p=0.0, inplace=False)
            )
            (my_module_1): Adapter_Attn(
              (project1): Linear(in_features=768, out_features=64, bias=True)
              (project2): Linear(in_features=64, out_features=768, bias=True)
              (dropout): Dropout(p=0.1, inplace=False)
              (adapter_conv): Adapter_Conv(
                (conv1): Conv2d(64, 64, kernel_size=(3, 3), stride=(1, 1), padding=(1, 1), groups=64)
                (conv2): Conv2d(64, 64, kernel_size=(5, 5), stride=(1, 1), padding=(2, 2), groups=64)
                (conv3): Conv2d(64, 64, kernel_size=(7, 7), stride=(1, 1), padding=(3, 3), groups=64)
                (projector): Conv2d(64, 64, kernel_size=(1, 1), stride=(1, 1))
              )
              (norm): LayerNorm((768,), eps=1e-05, elementwise_affine=True)
            )
            (my_module_2): Adapter_Attn(
              (project1): Linear(in_features=768, out_features=64, bias=True)
              (project2): Linear(in_features=64, out_features=768, bias=True)
              (dropout): Dropout(p=0.1, inplace=False)
              (adapter_conv): Adapter_Conv(
                (conv1): Conv2d(64, 64, kernel_size=(3, 3), stride=(1, 1), padding=(1, 1), groups=64)
                (conv2): Conv2d(64, 64, kernel_size=(5, 5), stride=(1, 1), padding=(2, 2), groups=64)
                (conv3): Conv2d(64, 64, kernel_size=(7, 7), stride=(1, 1), padding=(3, 3), groups=64)
                (projector): Conv2d(64, 64, kernel_size=(1, 1), stride=(1, 1))
              )
              (norm): LayerNorm((768,), eps=1e-05, elementwise_affine=True)
            )
          )
          (5): SwinTransformerBlock(
            (norm1): LayerNorm((768,), eps=1e-05, elementwise_affine=True)
            (attn): WindowAttention(
              (qkv): Linear(in_features=768, out_features=2304, bias=True)
              (attn_drop): Dropout(p=0.0, inplace=False)
              (proj): Linear(in_features=768, out_features=768, bias=True)
              (proj_drop): Dropout(p=0.0, inplace=False)
              (softmax): Softmax(dim=-1)
            )
            (drop_path): DropPath(drop_prob=0.078)
            (norm2): LayerNorm((768,), eps=1e-05, elementwise_affine=True)
            (mlp): Mlp(
              (fc1): Linear(in_features=768, out_features=3072, bias=True)
              (act): GELU()
              (fc2): Linear(in_features=3072, out_features=768, bias=True)
              (drop): Dropout(p=0.0, inplace=False)
            )
            (my_module_1): Adapter_Attn(
              (project1): Linear(in_features=768, out_features=64, bias=True)
              (project2): Linear(in_features=64, out_features=768, bias=True)
              (dropout): Dropout(p=0.1, inplace=False)
              (adapter_conv): Adapter_Conv(
                (conv1): Conv2d(64, 64, kernel_size=(3, 3), stride=(1, 1), padding=(1, 1), groups=64)
                (conv2): Conv2d(64, 64, kernel_size=(5, 5), stride=(1, 1), padding=(2, 2), groups=64)
                (conv3): Conv2d(64, 64, kernel_size=(7, 7), stride=(1, 1), padding=(3, 3), groups=64)
                (projector): Conv2d(64, 64, kernel_size=(1, 1), stride=(1, 1))
              )
              (norm): LayerNorm((768,), eps=1e-05, elementwise_affine=True)
            )
            (my_module_2): Adapter_Attn(
              (project1): Linear(in_features=768, out_features=64, bias=True)
              (project2): Linear(in_features=64, out_features=768, bias=True)
              (dropout): Dropout(p=0.1, inplace=False)
              (adapter_conv): Adapter_Conv(
                (conv1): Conv2d(64, 64, kernel_size=(3, 3), stride=(1, 1), padding=(1, 1), groups=64)
                (conv2): Conv2d(64, 64, kernel_size=(5, 5), stride=(1, 1), padding=(2, 2), groups=64)
                (conv3): Conv2d(64, 64, kernel_size=(7, 7), stride=(1, 1), padding=(3, 3), groups=64)
                (projector): Conv2d(64, 64, kernel_size=(1, 1), stride=(1, 1))
              )
              (norm): LayerNorm((768,), eps=1e-05, elementwise_affine=True)
            )
          )
          (6): SwinTransformerBlock(
            (norm1): LayerNorm((768,), eps=1e-05, elementwise_affine=True)
            (attn): WindowAttention(
              (qkv): Linear(in_features=768, out_features=2304, bias=True)
              (attn_drop): Dropout(p=0.0, inplace=False)
              (proj): Linear(in_features=768, out_features=768, bias=True)
              (proj_drop): Dropout(p=0.0, inplace=False)
              (softmax): Softmax(dim=-1)
            )
            (drop_path): DropPath(drop_prob=0.087)
            (norm2): LayerNorm((768,), eps=1e-05, elementwise_affine=True)
            (mlp): Mlp(
              (fc1): Linear(in_features=768, out_features=3072, bias=True)
              (act): GELU()
              (fc2): Linear(in_features=3072, out_features=768, bias=True)
              (drop): Dropout(p=0.0, inplace=False)
            )
            (my_module_1): Adapter_Attn(
              (project1): Linear(in_features=768, out_features=64, bias=True)
              (project2): Linear(in_features=64, out_features=768, bias=True)
              (dropout): Dropout(p=0.1, inplace=False)
              (adapter_conv): Adapter_Conv(
                (conv1): Conv2d(64, 64, kernel_size=(3, 3), stride=(1, 1), padding=(1, 1), groups=64)
                (conv2): Conv2d(64, 64, kernel_size=(5, 5), stride=(1, 1), padding=(2, 2), groups=64)
                (conv3): Conv2d(64, 64, kernel_size=(7, 7), stride=(1, 1), padding=(3, 3), groups=64)
                (projector): Conv2d(64, 64, kernel_size=(1, 1), stride=(1, 1))
              )
              (norm): LayerNorm((768,), eps=1e-05, elementwise_affine=True)
            )
            (my_module_2): Adapter_Attn(
              (project1): Linear(in_features=768, out_features=64, bias=True)
              (project2): Linear(in_features=64, out_features=768, bias=True)
              (dropout): Dropout(p=0.1, inplace=False)
              (adapter_conv): Adapter_Conv(
                (conv1): Conv2d(64, 64, kernel_size=(3, 3), stride=(1, 1), padding=(1, 1), groups=64)
                (conv2): Conv2d(64, 64, kernel_size=(5, 5), stride=(1, 1), padding=(2, 2), groups=64)
                (conv3): Conv2d(64, 64, kernel_size=(7, 7), stride=(1, 1), padding=(3, 3), groups=64)
                (projector): Conv2d(64, 64, kernel_size=(1, 1), stride=(1, 1))
              )
              (norm): LayerNorm((768,), eps=1e-05, elementwise_affine=True)
            )
          )
          (7): SwinTransformerBlock(
            (norm1): LayerNorm((768,), eps=1e-05, elementwise_affine=True)
            (attn): WindowAttention(
              (qkv): Linear(in_features=768, out_features=2304, bias=True)
              (attn_drop): Dropout(p=0.0, inplace=False)
              (proj): Linear(in_features=768, out_features=768, bias=True)
              (proj_drop): Dropout(p=0.0, inplace=False)
              (softmax): Softmax(dim=-1)
            )
            (drop_path): DropPath(drop_prob=0.096)
            (norm2): LayerNorm((768,), eps=1e-05, elementwise_affine=True)
            (mlp): Mlp(
              (fc1): Linear(in_features=768, out_features=3072, bias=True)
              (act): GELU()
              (fc2): Linear(in_features=3072, out_features=768, bias=True)
              (drop): Dropout(p=0.0, inplace=False)
            )
            (my_module_1): Adapter_Attn(
              (project1): Linear(in_features=768, out_features=64, bias=True)
              (project2): Linear(in_features=64, out_features=768, bias=True)
              (dropout): Dropout(p=0.1, inplace=False)
              (adapter_conv): Adapter_Conv(
                (conv1): Conv2d(64, 64, kernel_size=(3, 3), stride=(1, 1), padding=(1, 1), groups=64)
                (conv2): Conv2d(64, 64, kernel_size=(5, 5), stride=(1, 1), padding=(2, 2), groups=64)
                (conv3): Conv2d(64, 64, kernel_size=(7, 7), stride=(1, 1), padding=(3, 3), groups=64)
                (projector): Conv2d(64, 64, kernel_size=(1, 1), stride=(1, 1))
              )
              (norm): LayerNorm((768,), eps=1e-05, elementwise_affine=True)
            )
            (my_module_2): Adapter_Attn(
              (project1): Linear(in_features=768, out_features=64, bias=True)
              (project2): Linear(in_features=64, out_features=768, bias=True)
              (dropout): Dropout(p=0.1, inplace=False)
              (adapter_conv): Adapter_Conv(
                (conv1): Conv2d(64, 64, kernel_size=(3, 3), stride=(1, 1), padding=(1, 1), groups=64)
                (conv2): Conv2d(64, 64, kernel_size=(5, 5), stride=(1, 1), padding=(2, 2), groups=64)
                (conv3): Conv2d(64, 64, kernel_size=(7, 7), stride=(1, 1), padding=(3, 3), groups=64)
                (projector): Conv2d(64, 64, kernel_size=(1, 1), stride=(1, 1))
              )
              (norm): LayerNorm((768,), eps=1e-05, elementwise_affine=True)
            )
          )
          (8): SwinTransformerBlock(
            (norm1): LayerNorm((768,), eps=1e-05, elementwise_affine=True)
            (attn): WindowAttention(
              (qkv): Linear(in_features=768, out_features=2304, bias=True)
              (attn_drop): Dropout(p=0.0, inplace=False)
              (proj): Linear(in_features=768, out_features=768, bias=True)
              (proj_drop): Dropout(p=0.0, inplace=False)
              (softmax): Softmax(dim=-1)
            )
            (drop_path): DropPath(drop_prob=0.104)
            (norm2): LayerNorm((768,), eps=1e-05, elementwise_affine=True)
            (mlp): Mlp(
              (fc1): Linear(in_features=768, out_features=3072, bias=True)
              (act): GELU()
              (fc2): Linear(in_features=3072, out_features=768, bias=True)
              (drop): Dropout(p=0.0, inplace=False)
            )
            (my_module_1): Adapter_Attn(
              (project1): Linear(in_features=768, out_features=64, bias=True)
              (project2): Linear(in_features=64, out_features=768, bias=True)
              (dropout): Dropout(p=0.1, inplace=False)
              (adapter_conv): Adapter_Conv(
                (conv1): Conv2d(64, 64, kernel_size=(3, 3), stride=(1, 1), padding=(1, 1), groups=64)
                (conv2): Conv2d(64, 64, kernel_size=(5, 5), stride=(1, 1), padding=(2, 2), groups=64)
                (conv3): Conv2d(64, 64, kernel_size=(7, 7), stride=(1, 1), padding=(3, 3), groups=64)
                (projector): Conv2d(64, 64, kernel_size=(1, 1), stride=(1, 1))
              )
              (norm): LayerNorm((768,), eps=1e-05, elementwise_affine=True)
            )
            (my_module_2): Adapter_Attn(
              (project1): Linear(in_features=768, out_features=64, bias=True)
              (project2): Linear(in_features=64, out_features=768, bias=True)
              (dropout): Dropout(p=0.1, inplace=False)
              (adapter_conv): Adapter_Conv(
                (conv1): Conv2d(64, 64, kernel_size=(3, 3), stride=(1, 1), padding=(1, 1), groups=64)
                (conv2): Conv2d(64, 64, kernel_size=(5, 5), stride=(1, 1), padding=(2, 2), groups=64)
                (conv3): Conv2d(64, 64, kernel_size=(7, 7), stride=(1, 1), padding=(3, 3), groups=64)
                (projector): Conv2d(64, 64, kernel_size=(1, 1), stride=(1, 1))
              )
              (norm): LayerNorm((768,), eps=1e-05, elementwise_affine=True)
            )
          )
          (9): SwinTransformerBlock(
            (norm1): LayerNorm((768,), eps=1e-05, elementwise_affine=True)
            (attn): WindowAttention(
              (qkv): Linear(in_features=768, out_features=2304, bias=True)
              (attn_drop): Dropout(p=0.0, inplace=False)
              (proj): Linear(in_features=768, out_features=768, bias=True)
              (proj_drop): Dropout(p=0.0, inplace=False)
              (softmax): Softmax(dim=-1)
            )
            (drop_path): DropPath(drop_prob=0.113)
            (norm2): LayerNorm((768,), eps=1e-05, elementwise_affine=True)
            (mlp): Mlp(
              (fc1): Linear(in_features=768, out_features=3072, bias=True)
              (act): GELU()
              (fc2): Linear(in_features=3072, out_features=768, bias=True)
              (drop): Dropout(p=0.0, inplace=False)
            )
            (my_module_1): Adapter_Attn(
              (project1): Linear(in_features=768, out_features=64, bias=True)
              (project2): Linear(in_features=64, out_features=768, bias=True)
              (dropout): Dropout(p=0.1, inplace=False)
              (adapter_conv): Adapter_Conv(
                (conv1): Conv2d(64, 64, kernel_size=(3, 3), stride=(1, 1), padding=(1, 1), groups=64)
                (conv2): Conv2d(64, 64, kernel_size=(5, 5), stride=(1, 1), padding=(2, 2), groups=64)
                (conv3): Conv2d(64, 64, kernel_size=(7, 7), stride=(1, 1), padding=(3, 3), groups=64)
                (projector): Conv2d(64, 64, kernel_size=(1, 1), stride=(1, 1))
              )
              (norm): LayerNorm((768,), eps=1e-05, elementwise_affine=True)
            )
            (my_module_2): Adapter_Attn(
              (project1): Linear(in_features=768, out_features=64, bias=True)
              (project2): Linear(in_features=64, out_features=768, bias=True)
              (dropout): Dropout(p=0.1, inplace=False)
              (adapter_conv): Adapter_Conv(
                (conv1): Conv2d(64, 64, kernel_size=(3, 3), stride=(1, 1), padding=(1, 1), groups=64)
                (conv2): Conv2d(64, 64, kernel_size=(5, 5), stride=(1, 1), padding=(2, 2), groups=64)
                (conv3): Conv2d(64, 64, kernel_size=(7, 7), stride=(1, 1), padding=(3, 3), groups=64)
                (projector): Conv2d(64, 64, kernel_size=(1, 1), stride=(1, 1))
              )
              (norm): LayerNorm((768,), eps=1e-05, elementwise_affine=True)
            )
          )
          (10): SwinTransformerBlock(
            (norm1): LayerNorm((768,), eps=1e-05, elementwise_affine=True)
            (attn): WindowAttention(
              (qkv): Linear(in_features=768, out_features=2304, bias=True)
              (attn_drop): Dropout(p=0.0, inplace=False)
              (proj): Linear(in_features=768, out_features=768, bias=True)
              (proj_drop): Dropout(p=0.0, inplace=False)
              (softmax): Softmax(dim=-1)
            )
            (drop_path): DropPath(drop_prob=0.122)
            (norm2): LayerNorm((768,), eps=1e-05, elementwise_affine=True)
            (mlp): Mlp(
              (fc1): Linear(in_features=768, out_features=3072, bias=True)
              (act): GELU()
              (fc2): Linear(in_features=3072, out_features=768, bias=True)
              (drop): Dropout(p=0.0, inplace=False)
            )
            (my_module_1): Adapter_Attn(
              (project1): Linear(in_features=768, out_features=64, bias=True)
              (project2): Linear(in_features=64, out_features=768, bias=True)
              (dropout): Dropout(p=0.1, inplace=False)
              (adapter_conv): Adapter_Conv(
                (conv1): Conv2d(64, 64, kernel_size=(3, 3), stride=(1, 1), padding=(1, 1), groups=64)
                (conv2): Conv2d(64, 64, kernel_size=(5, 5), stride=(1, 1), padding=(2, 2), groups=64)
                (conv3): Conv2d(64, 64, kernel_size=(7, 7), stride=(1, 1), padding=(3, 3), groups=64)
                (projector): Conv2d(64, 64, kernel_size=(1, 1), stride=(1, 1))
              )
              (norm): LayerNorm((768,), eps=1e-05, elementwise_affine=True)
            )
            (my_module_2): Adapter_Attn(
              (project1): Linear(in_features=768, out_features=64, bias=True)
              (project2): Linear(in_features=64, out_features=768, bias=True)
              (dropout): Dropout(p=0.1, inplace=False)
              (adapter_conv): Adapter_Conv(
                (conv1): Conv2d(64, 64, kernel_size=(3, 3), stride=(1, 1), padding=(1, 1), groups=64)
                (conv2): Conv2d(64, 64, kernel_size=(5, 5), stride=(1, 1), padding=(2, 2), groups=64)
                (conv3): Conv2d(64, 64, kernel_size=(7, 7), stride=(1, 1), padding=(3, 3), groups=64)
                (projector): Conv2d(64, 64, kernel_size=(1, 1), stride=(1, 1))
              )
              (norm): LayerNorm((768,), eps=1e-05, elementwise_affine=True)
            )
          )
          (11): SwinTransformerBlock(
            (norm1): LayerNorm((768,), eps=1e-05, elementwise_affine=True)
            (attn): WindowAttention(
              (qkv): Linear(in_features=768, out_features=2304, bias=True)
              (attn_drop): Dropout(p=0.0, inplace=False)
              (proj): Linear(in_features=768, out_features=768, bias=True)
              (proj_drop): Dropout(p=0.0, inplace=False)
              (softmax): Softmax(dim=-1)
            )
            (drop_path): DropPath(drop_prob=0.130)
            (norm2): LayerNorm((768,), eps=1e-05, elementwise_affine=True)
            (mlp): Mlp(
              (fc1): Linear(in_features=768, out_features=3072, bias=True)
              (act): GELU()
              (fc2): Linear(in_features=3072, out_features=768, bias=True)
              (drop): Dropout(p=0.0, inplace=False)
            )
            (my_module_1): Adapter_Attn(
              (project1): Linear(in_features=768, out_features=64, bias=True)
              (project2): Linear(in_features=64, out_features=768, bias=True)
              (dropout): Dropout(p=0.1, inplace=False)
              (adapter_conv): Adapter_Conv(
                (conv1): Conv2d(64, 64, kernel_size=(3, 3), stride=(1, 1), padding=(1, 1), groups=64)
                (conv2): Conv2d(64, 64, kernel_size=(5, 5), stride=(1, 1), padding=(2, 2), groups=64)
                (conv3): Conv2d(64, 64, kernel_size=(7, 7), stride=(1, 1), padding=(3, 3), groups=64)
                (projector): Conv2d(64, 64, kernel_size=(1, 1), stride=(1, 1))
              )
              (norm): LayerNorm((768,), eps=1e-05, elementwise_affine=True)
            )
            (my_module_2): Adapter_Attn(
              (project1): Linear(in_features=768, out_features=64, bias=True)
              (project2): Linear(in_features=64, out_features=768, bias=True)
              (dropout): Dropout(p=0.1, inplace=False)
              (adapter_conv): Adapter_Conv(
                (conv1): Conv2d(64, 64, kernel_size=(3, 3), stride=(1, 1), padding=(1, 1), groups=64)
                (conv2): Conv2d(64, 64, kernel_size=(5, 5), stride=(1, 1), padding=(2, 2), groups=64)
                (conv3): Conv2d(64, 64, kernel_size=(7, 7), stride=(1, 1), padding=(3, 3), groups=64)
                (projector): Conv2d(64, 64, kernel_size=(1, 1), stride=(1, 1))
              )
              (norm): LayerNorm((768,), eps=1e-05, elementwise_affine=True)
            )
          )
          (12): SwinTransformerBlock(
            (norm1): LayerNorm((768,), eps=1e-05, elementwise_affine=True)
            (attn): WindowAttention(
              (qkv): Linear(in_features=768, out_features=2304, bias=True)
              (attn_drop): Dropout(p=0.0, inplace=False)
              (proj): Linear(in_features=768, out_features=768, bias=True)
              (proj_drop): Dropout(p=0.0, inplace=False)
              (softmax): Softmax(dim=-1)
            )
            (drop_path): DropPath(drop_prob=0.139)
            (norm2): LayerNorm((768,), eps=1e-05, elementwise_affine=True)
            (mlp): Mlp(
              (fc1): Linear(in_features=768, out_features=3072, bias=True)
              (act): GELU()
              (fc2): Linear(in_features=3072, out_features=768, bias=True)
              (drop): Dropout(p=0.0, inplace=False)
            )
            (my_module_1): Adapter_Attn(
              (project1): Linear(in_features=768, out_features=64, bias=True)
              (project2): Linear(in_features=64, out_features=768, bias=True)
              (dropout): Dropout(p=0.1, inplace=False)
              (adapter_conv): Adapter_Conv(
                (conv1): Conv2d(64, 64, kernel_size=(3, 3), stride=(1, 1), padding=(1, 1), groups=64)
                (conv2): Conv2d(64, 64, kernel_size=(5, 5), stride=(1, 1), padding=(2, 2), groups=64)
                (conv3): Conv2d(64, 64, kernel_size=(7, 7), stride=(1, 1), padding=(3, 3), groups=64)
                (projector): Conv2d(64, 64, kernel_size=(1, 1), stride=(1, 1))
              )
              (norm): LayerNorm((768,), eps=1e-05, elementwise_affine=True)
            )
            (my_module_2): Adapter_Attn(
              (project1): Linear(in_features=768, out_features=64, bias=True)
              (project2): Linear(in_features=64, out_features=768, bias=True)
              (dropout): Dropout(p=0.1, inplace=False)
              (adapter_conv): Adapter_Conv(
                (conv1): Conv2d(64, 64, kernel_size=(3, 3), stride=(1, 1), padding=(1, 1), groups=64)
                (conv2): Conv2d(64, 64, kernel_size=(5, 5), stride=(1, 1), padding=(2, 2), groups=64)
                (conv3): Conv2d(64, 64, kernel_size=(7, 7), stride=(1, 1), padding=(3, 3), groups=64)
                (projector): Conv2d(64, 64, kernel_size=(1, 1), stride=(1, 1))
              )
              (norm): LayerNorm((768,), eps=1e-05, elementwise_affine=True)
            )
          )
          (13): SwinTransformerBlock(
            (norm1): LayerNorm((768,), eps=1e-05, elementwise_affine=True)
            (attn): WindowAttention(
              (qkv): Linear(in_features=768, out_features=2304, bias=True)
              (attn_drop): Dropout(p=0.0, inplace=False)
              (proj): Linear(in_features=768, out_features=768, bias=True)
              (proj_drop): Dropout(p=0.0, inplace=False)
              (softmax): Softmax(dim=-1)
            )
            (drop_path): DropPath(drop_prob=0.148)
            (norm2): LayerNorm((768,), eps=1e-05, elementwise_affine=True)
            (mlp): Mlp(
              (fc1): Linear(in_features=768, out_features=3072, bias=True)
              (act): GELU()
              (fc2): Linear(in_features=3072, out_features=768, bias=True)
              (drop): Dropout(p=0.0, inplace=False)
            )
            (my_module_1): Adapter_Attn(
              (project1): Linear(in_features=768, out_features=64, bias=True)
              (project2): Linear(in_features=64, out_features=768, bias=True)
              (dropout): Dropout(p=0.1, inplace=False)
              (adapter_conv): Adapter_Conv(
                (conv1): Conv2d(64, 64, kernel_size=(3, 3), stride=(1, 1), padding=(1, 1), groups=64)
                (conv2): Conv2d(64, 64, kernel_size=(5, 5), stride=(1, 1), padding=(2, 2), groups=64)
                (conv3): Conv2d(64, 64, kernel_size=(7, 7), stride=(1, 1), padding=(3, 3), groups=64)
                (projector): Conv2d(64, 64, kernel_size=(1, 1), stride=(1, 1))
              )
              (norm): LayerNorm((768,), eps=1e-05, elementwise_affine=True)
            )
            (my_module_2): Adapter_Attn(
              (project1): Linear(in_features=768, out_features=64, bias=True)
              (project2): Linear(in_features=64, out_features=768, bias=True)
              (dropout): Dropout(p=0.1, inplace=False)
              (adapter_conv): Adapter_Conv(
                (conv1): Conv2d(64, 64, kernel_size=(3, 3), stride=(1, 1), padding=(1, 1), groups=64)
                (conv2): Conv2d(64, 64, kernel_size=(5, 5), stride=(1, 1), padding=(2, 2), groups=64)
                (conv3): Conv2d(64, 64, kernel_size=(7, 7), stride=(1, 1), padding=(3, 3), groups=64)
                (projector): Conv2d(64, 64, kernel_size=(1, 1), stride=(1, 1))
              )
              (norm): LayerNorm((768,), eps=1e-05, elementwise_affine=True)
            )
          )
          (14): SwinTransformerBlock(
            (norm1): LayerNorm((768,), eps=1e-05, elementwise_affine=True)
            (attn): WindowAttention(
              (qkv): Linear(in_features=768, out_features=2304, bias=True)
              (attn_drop): Dropout(p=0.0, inplace=False)
              (proj): Linear(in_features=768, out_features=768, bias=True)
              (proj_drop): Dropout(p=0.0, inplace=False)
              (softmax): Softmax(dim=-1)
            )
            (drop_path): DropPath(drop_prob=0.157)
            (norm2): LayerNorm((768,), eps=1e-05, elementwise_affine=True)
            (mlp): Mlp(
              (fc1): Linear(in_features=768, out_features=3072, bias=True)
              (act): GELU()
              (fc2): Linear(in_features=3072, out_features=768, bias=True)
              (drop): Dropout(p=0.0, inplace=False)
            )
            (my_module_1): Adapter_Attn(
              (project1): Linear(in_features=768, out_features=64, bias=True)
              (project2): Linear(in_features=64, out_features=768, bias=True)
              (dropout): Dropout(p=0.1, inplace=False)
              (adapter_conv): Adapter_Conv(
                (conv1): Conv2d(64, 64, kernel_size=(3, 3), stride=(1, 1), padding=(1, 1), groups=64)
                (conv2): Conv2d(64, 64, kernel_size=(5, 5), stride=(1, 1), padding=(2, 2), groups=64)
                (conv3): Conv2d(64, 64, kernel_size=(7, 7), stride=(1, 1), padding=(3, 3), groups=64)
                (projector): Conv2d(64, 64, kernel_size=(1, 1), stride=(1, 1))
              )
              (norm): LayerNorm((768,), eps=1e-05, elementwise_affine=True)
            )
            (my_module_2): Adapter_Attn(
              (project1): Linear(in_features=768, out_features=64, bias=True)
              (project2): Linear(in_features=64, out_features=768, bias=True)
              (dropout): Dropout(p=0.1, inplace=False)
              (adapter_conv): Adapter_Conv(
                (conv1): Conv2d(64, 64, kernel_size=(3, 3), stride=(1, 1), padding=(1, 1), groups=64)
                (conv2): Conv2d(64, 64, kernel_size=(5, 5), stride=(1, 1), padding=(2, 2), groups=64)
                (conv3): Conv2d(64, 64, kernel_size=(7, 7), stride=(1, 1), padding=(3, 3), groups=64)
                (projector): Conv2d(64, 64, kernel_size=(1, 1), stride=(1, 1))
              )
              (norm): LayerNorm((768,), eps=1e-05, elementwise_affine=True)
            )
          )
          (15): SwinTransformerBlock(
            (norm1): LayerNorm((768,), eps=1e-05, elementwise_affine=True)
            (attn): WindowAttention(
              (qkv): Linear(in_features=768, out_features=2304, bias=True)
              (attn_drop): Dropout(p=0.0, inplace=False)
              (proj): Linear(in_features=768, out_features=768, bias=True)
              (proj_drop): Dropout(p=0.0, inplace=False)
              (softmax): Softmax(dim=-1)
            )
            (drop_path): DropPath(drop_prob=0.165)
            (norm2): LayerNorm((768,), eps=1e-05, elementwise_affine=True)
            (mlp): Mlp(
              (fc1): Linear(in_features=768, out_features=3072, bias=True)
              (act): GELU()
              (fc2): Linear(in_features=3072, out_features=768, bias=True)
              (drop): Dropout(p=0.0, inplace=False)
            )
            (my_module_1): Adapter_Attn(
              (project1): Linear(in_features=768, out_features=64, bias=True)
              (project2): Linear(in_features=64, out_features=768, bias=True)
              (dropout): Dropout(p=0.1, inplace=False)
              (adapter_conv): Adapter_Conv(
                (conv1): Conv2d(64, 64, kernel_size=(3, 3), stride=(1, 1), padding=(1, 1), groups=64)
                (conv2): Conv2d(64, 64, kernel_size=(5, 5), stride=(1, 1), padding=(2, 2), groups=64)
                (conv3): Conv2d(64, 64, kernel_size=(7, 7), stride=(1, 1), padding=(3, 3), groups=64)
                (projector): Conv2d(64, 64, kernel_size=(1, 1), stride=(1, 1))
              )
              (norm): LayerNorm((768,), eps=1e-05, elementwise_affine=True)
            )
            (my_module_2): Adapter_Attn(
              (project1): Linear(in_features=768, out_features=64, bias=True)
              (project2): Linear(in_features=64, out_features=768, bias=True)
              (dropout): Dropout(p=0.1, inplace=False)
              (adapter_conv): Adapter_Conv(
                (conv1): Conv2d(64, 64, kernel_size=(3, 3), stride=(1, 1), padding=(1, 1), groups=64)
                (conv2): Conv2d(64, 64, kernel_size=(5, 5), stride=(1, 1), padding=(2, 2), groups=64)
                (conv3): Conv2d(64, 64, kernel_size=(7, 7), stride=(1, 1), padding=(3, 3), groups=64)
                (projector): Conv2d(64, 64, kernel_size=(1, 1), stride=(1, 1))
              )
              (norm): LayerNorm((768,), eps=1e-05, elementwise_affine=True)
            )
          )
          (16): SwinTransformerBlock(
            (norm1): LayerNorm((768,), eps=1e-05, elementwise_affine=True)
            (attn): WindowAttention(
              (qkv): Linear(in_features=768, out_features=2304, bias=True)
              (attn_drop): Dropout(p=0.0, inplace=False)
              (proj): Linear(in_features=768, out_features=768, bias=True)
              (proj_drop): Dropout(p=0.0, inplace=False)
              (softmax): Softmax(dim=-1)
            )
            (drop_path): DropPath(drop_prob=0.174)
            (norm2): LayerNorm((768,), eps=1e-05, elementwise_affine=True)
            (mlp): Mlp(
              (fc1): Linear(in_features=768, out_features=3072, bias=True)
              (act): GELU()
              (fc2): Linear(in_features=3072, out_features=768, bias=True)
              (drop): Dropout(p=0.0, inplace=False)
            )
            (my_module_1): Adapter_Attn(
              (project1): Linear(in_features=768, out_features=64, bias=True)
              (project2): Linear(in_features=64, out_features=768, bias=True)
              (dropout): Dropout(p=0.1, inplace=False)
              (adapter_conv): Adapter_Conv(
                (conv1): Conv2d(64, 64, kernel_size=(3, 3), stride=(1, 1), padding=(1, 1), groups=64)
                (conv2): Conv2d(64, 64, kernel_size=(5, 5), stride=(1, 1), padding=(2, 2), groups=64)
                (conv3): Conv2d(64, 64, kernel_size=(7, 7), stride=(1, 1), padding=(3, 3), groups=64)
                (projector): Conv2d(64, 64, kernel_size=(1, 1), stride=(1, 1))
              )
              (norm): LayerNorm((768,), eps=1e-05, elementwise_affine=True)
            )
            (my_module_2): Adapter_Attn(
              (project1): Linear(in_features=768, out_features=64, bias=True)
              (project2): Linear(in_features=64, out_features=768, bias=True)
              (dropout): Dropout(p=0.1, inplace=False)
              (adapter_conv): Adapter_Conv(
                (conv1): Conv2d(64, 64, kernel_size=(3, 3), stride=(1, 1), padding=(1, 1), groups=64)
                (conv2): Conv2d(64, 64, kernel_size=(5, 5), stride=(1, 1), padding=(2, 2), groups=64)
                (conv3): Conv2d(64, 64, kernel_size=(7, 7), stride=(1, 1), padding=(3, 3), groups=64)
                (projector): Conv2d(64, 64, kernel_size=(1, 1), stride=(1, 1))
              )
              (norm): LayerNorm((768,), eps=1e-05, elementwise_affine=True)
            )
          )
          (17): SwinTransformerBlock(
            (norm1): LayerNorm((768,), eps=1e-05, elementwise_affine=True)
            (attn): WindowAttention(
              (qkv): Linear(in_features=768, out_features=2304, bias=True)
              (attn_drop): Dropout(p=0.0, inplace=False)
              (proj): Linear(in_features=768, out_features=768, bias=True)
              (proj_drop): Dropout(p=0.0, inplace=False)
              (softmax): Softmax(dim=-1)
            )
            (drop_path): DropPath(drop_prob=0.183)
            (norm2): LayerNorm((768,), eps=1e-05, elementwise_affine=True)
            (mlp): Mlp(
              (fc1): Linear(in_features=768, out_features=3072, bias=True)
              (act): GELU()
              (fc2): Linear(in_features=3072, out_features=768, bias=True)
              (drop): Dropout(p=0.0, inplace=False)
            )
            (my_module_1): Adapter_Attn(
              (project1): Linear(in_features=768, out_features=64, bias=True)
              (project2): Linear(in_features=64, out_features=768, bias=True)
              (dropout): Dropout(p=0.1, inplace=False)
              (adapter_conv): Adapter_Conv(
                (conv1): Conv2d(64, 64, kernel_size=(3, 3), stride=(1, 1), padding=(1, 1), groups=64)
                (conv2): Conv2d(64, 64, kernel_size=(5, 5), stride=(1, 1), padding=(2, 2), groups=64)
                (conv3): Conv2d(64, 64, kernel_size=(7, 7), stride=(1, 1), padding=(3, 3), groups=64)
                (projector): Conv2d(64, 64, kernel_size=(1, 1), stride=(1, 1))
              )
              (norm): LayerNorm((768,), eps=1e-05, elementwise_affine=True)
            )
            (my_module_2): Adapter_Attn(
              (project1): Linear(in_features=768, out_features=64, bias=True)
              (project2): Linear(in_features=64, out_features=768, bias=True)
              (dropout): Dropout(p=0.1, inplace=False)
              (adapter_conv): Adapter_Conv(
                (conv1): Conv2d(64, 64, kernel_size=(3, 3), stride=(1, 1), padding=(1, 1), groups=64)
                (conv2): Conv2d(64, 64, kernel_size=(5, 5), stride=(1, 1), padding=(2, 2), groups=64)
                (conv3): Conv2d(64, 64, kernel_size=(7, 7), stride=(1, 1), padding=(3, 3), groups=64)
                (projector): Conv2d(64, 64, kernel_size=(1, 1), stride=(1, 1))
              )
              (norm): LayerNorm((768,), eps=1e-05, elementwise_affine=True)
            )
          )
        )
        (downsample): PatchMerging(
          (reduction): Linear(in_features=3072, out_features=1536, bias=False)
          (norm): LayerNorm((3072,), eps=1e-05, elementwise_affine=True)
        )
      )
      (3): BasicLayer(
        (blocks): ModuleList(
          (0): SwinTransformerBlock(
            (norm1): LayerNorm((1536,), eps=1e-05, elementwise_affine=True)
            (attn): WindowAttention(
              (qkv): Linear(in_features=1536, out_features=4608, bias=True)
              (attn_drop): Dropout(p=0.0, inplace=False)
              (proj): Linear(in_features=1536, out_features=1536, bias=True)
              (proj_drop): Dropout(p=0.0, inplace=False)
              (softmax): Softmax(dim=-1)
            )
            (drop_path): DropPath(drop_prob=0.191)
            (norm2): LayerNorm((1536,), eps=1e-05, elementwise_affine=True)
            (mlp): Mlp(
              (fc1): Linear(in_features=1536, out_features=6144, bias=True)
              (act): GELU()
              (fc2): Linear(in_features=6144, out_features=1536, bias=True)
              (drop): Dropout(p=0.0, inplace=False)
            )
            (my_module_1): Adapter_Attn(
              (project1): Linear(in_features=1536, out_features=64, bias=True)
              (project2): Linear(in_features=64, out_features=1536, bias=True)
              (dropout): Dropout(p=0.1, inplace=False)
              (adapter_conv): Adapter_Conv(
                (conv1): Conv2d(64, 64, kernel_size=(3, 3), stride=(1, 1), padding=(1, 1), groups=64)
                (conv2): Conv2d(64, 64, kernel_size=(5, 5), stride=(1, 1), padding=(2, 2), groups=64)
                (conv3): Conv2d(64, 64, kernel_size=(7, 7), stride=(1, 1), padding=(3, 3), groups=64)
                (projector): Conv2d(64, 64, kernel_size=(1, 1), stride=(1, 1))
              )
              (norm): LayerNorm((1536,), eps=1e-05, elementwise_affine=True)
            )
            (my_module_2): Adapter_Attn(
              (project1): Linear(in_features=1536, out_features=64, bias=True)
              (project2): Linear(in_features=64, out_features=1536, bias=True)
              (dropout): Dropout(p=0.1, inplace=False)
              (adapter_conv): Adapter_Conv(
                (conv1): Conv2d(64, 64, kernel_size=(3, 3), stride=(1, 1), padding=(1, 1), groups=64)
                (conv2): Conv2d(64, 64, kernel_size=(5, 5), stride=(1, 1), padding=(2, 2), groups=64)
                (conv3): Conv2d(64, 64, kernel_size=(7, 7), stride=(1, 1), padding=(3, 3), groups=64)
                (projector): Conv2d(64, 64, kernel_size=(1, 1), stride=(1, 1))
              )
              (norm): LayerNorm((1536,), eps=1e-05, elementwise_affine=True)
            )
          )
          (1): SwinTransformerBlock(
            (norm1): LayerNorm((1536,), eps=1e-05, elementwise_affine=True)
            (attn): WindowAttention(
              (qkv): Linear(in_features=1536, out_features=4608, bias=True)
              (attn_drop): Dropout(p=0.0, inplace=False)
              (proj): Linear(in_features=1536, out_features=1536, bias=True)
              (proj_drop): Dropout(p=0.0, inplace=False)
              (softmax): Softmax(dim=-1)
            )
            (drop_path): DropPath(drop_prob=0.200)
            (norm2): LayerNorm((1536,), eps=1e-05, elementwise_affine=True)
            (mlp): Mlp(
              (fc1): Linear(in_features=1536, out_features=6144, bias=True)
              (act): GELU()
              (fc2): Linear(in_features=6144, out_features=1536, bias=True)
              (drop): Dropout(p=0.0, inplace=False)
            )
            (my_module_1): Adapter_Attn(
              (project1): Linear(in_features=1536, out_features=64, bias=True)
              (project2): Linear(in_features=64, out_features=1536, bias=True)
              (dropout): Dropout(p=0.1, inplace=False)
              (adapter_conv): Adapter_Conv(
                (conv1): Conv2d(64, 64, kernel_size=(3, 3), stride=(1, 1), padding=(1, 1), groups=64)
                (conv2): Conv2d(64, 64, kernel_size=(5, 5), stride=(1, 1), padding=(2, 2), groups=64)
                (conv3): Conv2d(64, 64, kernel_size=(7, 7), stride=(1, 1), padding=(3, 3), groups=64)
                (projector): Conv2d(64, 64, kernel_size=(1, 1), stride=(1, 1))
              )
              (norm): LayerNorm((1536,), eps=1e-05, elementwise_affine=True)
            )
            (my_module_2): Adapter_Attn(
              (project1): Linear(in_features=1536, out_features=64, bias=True)
              (project2): Linear(in_features=64, out_features=1536, bias=True)
              (dropout): Dropout(p=0.1, inplace=False)
              (adapter_conv): Adapter_Conv(
                (conv1): Conv2d(64, 64, kernel_size=(3, 3), stride=(1, 1), padding=(1, 1), groups=64)
                (conv2): Conv2d(64, 64, kernel_size=(5, 5), stride=(1, 1), padding=(2, 2), groups=64)
                (conv3): Conv2d(64, 64, kernel_size=(7, 7), stride=(1, 1), padding=(3, 3), groups=64)
                (projector): Conv2d(64, 64, kernel_size=(1, 1), stride=(1, 1))
              )
              (norm): LayerNorm((1536,), eps=1e-05, elementwise_affine=True)
            )
          )
        )
      )
    )
    (norm0): LayerNorm((192,), eps=1e-05, elementwise_affine=True)
    (norm1): LayerNorm((384,), eps=1e-05, elementwise_affine=True)
    (norm2): LayerNorm((768,), eps=1e-05, elementwise_affine=True)
    (norm3): LayerNorm((1536,), eps=1e-05, elementwise_affine=True)
  )
  (decode_head): UPerHead(
    input_transform=multiple_select, ignore_index=255, align_corners=False
    (loss_decode): CrossEntropyLoss()
    (conv_seg): Conv2d(512, 150, kernel_size=(1, 1), stride=(1, 1))
    (dropout): Dropout2d(p=0.1, inplace=False)
    (psp_modules): PPM(
      (0): Sequential(
        (0): AdaptiveAvgPool2d(output_size=1)
        (1): ConvModule(
          (conv): Conv2d(1536, 512, kernel_size=(1, 1), stride=(1, 1), bias=False)
          (bn): SyncBatchNorm(512, eps=1e-05, momentum=0.1, affine=True, track_running_stats=True)
          (activate): ReLU(inplace=True)
        )
      )
      (1): Sequential(
        (0): AdaptiveAvgPool2d(output_size=2)
        (1): ConvModule(
          (conv): Conv2d(1536, 512, kernel_size=(1, 1), stride=(1, 1), bias=False)
          (bn): SyncBatchNorm(512, eps=1e-05, momentum=0.1, affine=True, track_running_stats=True)
          (activate): ReLU(inplace=True)
        )
      )
      (2): Sequential(
        (0): AdaptiveAvgPool2d(output_size=3)
        (1): ConvModule(
          (conv): Conv2d(1536, 512, kernel_size=(1, 1), stride=(1, 1), bias=False)
          (bn): SyncBatchNorm(512, eps=1e-05, momentum=0.1, affine=True, track_running_stats=True)
          (activate): ReLU(inplace=True)
        )
      )
      (3): Sequential(
        (0): AdaptiveAvgPool2d(output_size=6)
        (1): ConvModule(
          (conv): Conv2d(1536, 512, kernel_size=(1, 1), stride=(1, 1), bias=False)
          (bn): SyncBatchNorm(512, eps=1e-05, momentum=0.1, affine=True, track_running_stats=True)
          (activate): ReLU(inplace=True)
        )
      )
    )
    (bottleneck): ConvModule(
      (conv): Conv2d(3584, 512, kernel_size=(3, 3), stride=(1, 1), padding=(1, 1), bias=False)
      (bn): SyncBatchNorm(512, eps=1e-05, momentum=0.1, affine=True, track_running_stats=True)
      (activate): ReLU(inplace=True)
    )
    (lateral_convs): ModuleList(
      (0): ConvModule(
        (conv): Conv2d(192, 512, kernel_size=(1, 1), stride=(1, 1), bias=False)
        (bn): SyncBatchNorm(512, eps=1e-05, momentum=0.1, affine=True, track_running_stats=True)
        (activate): ReLU()
      )
      (1): ConvModule(
        (conv): Conv2d(384, 512, kernel_size=(1, 1), stride=(1, 1), bias=False)
        (bn): SyncBatchNorm(512, eps=1e-05, momentum=0.1, affine=True, track_running_stats=True)
        (activate): ReLU()
      )
      (2): ConvModule(
        (conv): Conv2d(768, 512, kernel_size=(1, 1), stride=(1, 1), bias=False)
        (bn): SyncBatchNorm(512, eps=1e-05, momentum=0.1, affine=True, track_running_stats=True)
        (activate): ReLU()
      )
    )
    (fpn_convs): ModuleList(
      (0): ConvModule(
        (conv): Conv2d(512, 512, kernel_size=(3, 3), stride=(1, 1), padding=(1, 1), bias=False)
        (bn): SyncBatchNorm(512, eps=1e-05, momentum=0.1, affine=True, track_running_stats=True)
        (activate): ReLU()
      )
      (1): ConvModule(
        (conv): Conv2d(512, 512, kernel_size=(3, 3), stride=(1, 1), padding=(1, 1), bias=False)
        (bn): SyncBatchNorm(512, eps=1e-05, momentum=0.1, affine=True, track_running_stats=True)
        (activate): ReLU()
      )
      (2): ConvModule(
        (conv): Conv2d(512, 512, kernel_size=(3, 3), stride=(1, 1), padding=(1, 1), bias=False)
        (bn): SyncBatchNorm(512, eps=1e-05, momentum=0.1, affine=True, track_running_stats=True)
        (activate): ReLU()
      )
    )
    (fpn_bottleneck): ConvModule(
      (conv): Conv2d(2048, 512, kernel_size=(3, 3), stride=(1, 1), padding=(1, 1), bias=False)
      (bn): SyncBatchNorm(512, eps=1e-05, momentum=0.1, affine=True, track_running_stats=True)
      (activate): ReLU(inplace=True)
    )
  )
  (auxiliary_head): FCNHead(
    input_transform=None, ignore_index=255, align_corners=False
    (loss_decode): CrossEntropyLoss()
    (conv_seg): Conv2d(256, 150, kernel_size=(1, 1), stride=(1, 1))
    (dropout): Dropout2d(p=0.1, inplace=False)
    (convs): Sequential(
      (0): ConvModule(
        (conv): Conv2d(768, 256, kernel_size=(3, 3), stride=(1, 1), padding=(1, 1), bias=False)
        (bn): SyncBatchNorm(256, eps=1e-05, momentum=0.1, affine=True, track_running_stats=True)
        (activate): ReLU(inplace=True)
      )
    )
  )
)
INFO:mmseg:EncoderDecoder(
  (backbone): SwinTransformer_Larry_v1_6_64(
    (patch_embed): PatchEmbed(
      (proj): Conv2d(3, 192, kernel_size=(4, 4), stride=(4, 4))
      (norm): LayerNorm((192,), eps=1e-05, elementwise_affine=True)
    )
    (pos_drop): Dropout(p=0.0, inplace=False)
    (layers): ModuleList(
      (0): BasicLayer(
        (blocks): ModuleList(
          (0): SwinTransformerBlock(
            (norm1): LayerNorm((192,), eps=1e-05, elementwise_affine=True)
            (attn): WindowAttention(
              (qkv): Linear(in_features=192, out_features=576, bias=True)
              (attn_drop): Dropout(p=0.0, inplace=False)
              (proj): Linear(in_features=192, out_features=192, bias=True)
              (proj_drop): Dropout(p=0.0, inplace=False)
              (softmax): Softmax(dim=-1)
            )
            (drop_path): Identity()
            (norm2): LayerNorm((192,), eps=1e-05, elementwise_affine=True)
            (mlp): Mlp(
              (fc1): Linear(in_features=192, out_features=768, bias=True)
              (act): GELU()
              (fc2): Linear(in_features=768, out_features=192, bias=True)
              (drop): Dropout(p=0.0, inplace=False)
            )
            (my_module_1): Adapter_Attn(
              (project1): Linear(in_features=192, out_features=64, bias=True)
              (project2): Linear(in_features=64, out_features=192, bias=True)
              (dropout): Dropout(p=0.1, inplace=False)
              (adapter_conv): Adapter_Conv(
                (conv1): Conv2d(64, 64, kernel_size=(3, 3), stride=(1, 1), padding=(1, 1), groups=64)
                (conv2): Conv2d(64, 64, kernel_size=(5, 5), stride=(1, 1), padding=(2, 2), groups=64)
                (conv3): Conv2d(64, 64, kernel_size=(7, 7), stride=(1, 1), padding=(3, 3), groups=64)
                (projector): Conv2d(64, 64, kernel_size=(1, 1), stride=(1, 1))
              )
              (norm): LayerNorm((192,), eps=1e-05, elementwise_affine=True)
            )
            (my_module_2): Adapter_Attn(
              (project1): Linear(in_features=192, out_features=64, bias=True)
              (project2): Linear(in_features=64, out_features=192, bias=True)
              (dropout): Dropout(p=0.1, inplace=False)
              (adapter_conv): Adapter_Conv(
                (conv1): Conv2d(64, 64, kernel_size=(3, 3), stride=(1, 1), padding=(1, 1), groups=64)
                (conv2): Conv2d(64, 64, kernel_size=(5, 5), stride=(1, 1), padding=(2, 2), groups=64)
                (conv3): Conv2d(64, 64, kernel_size=(7, 7), stride=(1, 1), padding=(3, 3), groups=64)
                (projector): Conv2d(64, 64, kernel_size=(1, 1), stride=(1, 1))
              )
              (norm): LayerNorm((192,), eps=1e-05, elementwise_affine=True)
            )
          )
          (1): SwinTransformerBlock(
            (norm1): LayerNorm((192,), eps=1e-05, elementwise_affine=True)
            (attn): WindowAttention(
              (qkv): Linear(in_features=192, out_features=576, bias=True)
              (attn_drop): Dropout(p=0.0, inplace=False)
              (proj): Linear(in_features=192, out_features=192, bias=True)
              (proj_drop): Dropout(p=0.0, inplace=False)
              (softmax): Softmax(dim=-1)
            )
            (drop_path): DropPath(drop_prob=0.009)
            (norm2): LayerNorm((192,), eps=1e-05, elementwise_affine=True)
            (mlp): Mlp(
              (fc1): Linear(in_features=192, out_features=768, bias=True)
              (act): GELU()
              (fc2): Linear(in_features=768, out_features=192, bias=True)
              (drop): Dropout(p=0.0, inplace=False)
            )
            (my_module_1): Adapter_Attn(
              (project1): Linear(in_features=192, out_features=64, bias=True)
              (project2): Linear(in_features=64, out_features=192, bias=True)
              (dropout): Dropout(p=0.1, inplace=False)
              (adapter_conv): Adapter_Conv(
                (conv1): Conv2d(64, 64, kernel_size=(3, 3), stride=(1, 1), padding=(1, 1), groups=64)
                (conv2): Conv2d(64, 64, kernel_size=(5, 5), stride=(1, 1), padding=(2, 2), groups=64)
                (conv3): Conv2d(64, 64, kernel_size=(7, 7), stride=(1, 1), padding=(3, 3), groups=64)
                (projector): Conv2d(64, 64, kernel_size=(1, 1), stride=(1, 1))
              )
              (norm): LayerNorm((192,), eps=1e-05, elementwise_affine=True)
            )
            (my_module_2): Adapter_Attn(
              (project1): Linear(in_features=192, out_features=64, bias=True)
              (project2): Linear(in_features=64, out_features=192, bias=True)
              (dropout): Dropout(p=0.1, inplace=False)
              (adapter_conv): Adapter_Conv(
                (conv1): Conv2d(64, 64, kernel_size=(3, 3), stride=(1, 1), padding=(1, 1), groups=64)
                (conv2): Conv2d(64, 64, kernel_size=(5, 5), stride=(1, 1), padding=(2, 2), groups=64)
                (conv3): Conv2d(64, 64, kernel_size=(7, 7), stride=(1, 1), padding=(3, 3), groups=64)
                (projector): Conv2d(64, 64, kernel_size=(1, 1), stride=(1, 1))
              )
              (norm): LayerNorm((192,), eps=1e-05, elementwise_affine=True)
            )
          )
        )
        (downsample): PatchMerging(
          (reduction): Linear(in_features=768, out_features=384, bias=False)
          (norm): LayerNorm((768,), eps=1e-05, elementwise_affine=True)
        )
      )
      (1): BasicLayer(
        (blocks): ModuleList(
          (0): SwinTransformerBlock(
            (norm1): LayerNorm((384,), eps=1e-05, elementwise_affine=True)
            (attn): WindowAttention(
              (qkv): Linear(in_features=384, out_features=1152, bias=True)
              (attn_drop): Dropout(p=0.0, inplace=False)
              (proj): Linear(in_features=384, out_features=384, bias=True)
              (proj_drop): Dropout(p=0.0, inplace=False)
              (softmax): Softmax(dim=-1)
            )
            (drop_path): DropPath(drop_prob=0.017)
            (norm2): LayerNorm((384,), eps=1e-05, elementwise_affine=True)
            (mlp): Mlp(
              (fc1): Linear(in_features=384, out_features=1536, bias=True)
              (act): GELU()
              (fc2): Linear(in_features=1536, out_features=384, bias=True)
              (drop): Dropout(p=0.0, inplace=False)
            )
            (my_module_1): Adapter_Attn(
              (project1): Linear(in_features=384, out_features=64, bias=True)
              (project2): Linear(in_features=64, out_features=384, bias=True)
              (dropout): Dropout(p=0.1, inplace=False)
              (adapter_conv): Adapter_Conv(
                (conv1): Conv2d(64, 64, kernel_size=(3, 3), stride=(1, 1), padding=(1, 1), groups=64)
                (conv2): Conv2d(64, 64, kernel_size=(5, 5), stride=(1, 1), padding=(2, 2), groups=64)
                (conv3): Conv2d(64, 64, kernel_size=(7, 7), stride=(1, 1), padding=(3, 3), groups=64)
                (projector): Conv2d(64, 64, kernel_size=(1, 1), stride=(1, 1))
              )
              (norm): LayerNorm((384,), eps=1e-05, elementwise_affine=True)
            )
            (my_module_2): Adapter_Attn(
              (project1): Linear(in_features=384, out_features=64, bias=True)
              (project2): Linear(in_features=64, out_features=384, bias=True)
              (dropout): Dropout(p=0.1, inplace=False)
              (adapter_conv): Adapter_Conv(
                (conv1): Conv2d(64, 64, kernel_size=(3, 3), stride=(1, 1), padding=(1, 1), groups=64)
                (conv2): Conv2d(64, 64, kernel_size=(5, 5), stride=(1, 1), padding=(2, 2), groups=64)
                (conv3): Conv2d(64, 64, kernel_size=(7, 7), stride=(1, 1), padding=(3, 3), groups=64)
                (projector): Conv2d(64, 64, kernel_size=(1, 1), stride=(1, 1))
              )
              (norm): LayerNorm((384,), eps=1e-05, elementwise_affine=True)
            )
          )
          (1): SwinTransformerBlock(
            (norm1): LayerNorm((384,), eps=1e-05, elementwise_affine=True)
            (attn): WindowAttention(
              (qkv): Linear(in_features=384, out_features=1152, bias=True)
              (attn_drop): Dropout(p=0.0, inplace=False)
              (proj): Linear(in_features=384, out_features=384, bias=True)
              (proj_drop): Dropout(p=0.0, inplace=False)
              (softmax): Softmax(dim=-1)
            )
            (drop_path): DropPath(drop_prob=0.026)
            (norm2): LayerNorm((384,), eps=1e-05, elementwise_affine=True)
            (mlp): Mlp(
              (fc1): Linear(in_features=384, out_features=1536, bias=True)
              (act): GELU()
              (fc2): Linear(in_features=1536, out_features=384, bias=True)
              (drop): Dropout(p=0.0, inplace=False)
            )
            (my_module_1): Adapter_Attn(
              (project1): Linear(in_features=384, out_features=64, bias=True)
              (project2): Linear(in_features=64, out_features=384, bias=True)
              (dropout): Dropout(p=0.1, inplace=False)
              (adapter_conv): Adapter_Conv(
                (conv1): Conv2d(64, 64, kernel_size=(3, 3), stride=(1, 1), padding=(1, 1), groups=64)
                (conv2): Conv2d(64, 64, kernel_size=(5, 5), stride=(1, 1), padding=(2, 2), groups=64)
                (conv3): Conv2d(64, 64, kernel_size=(7, 7), stride=(1, 1), padding=(3, 3), groups=64)
                (projector): Conv2d(64, 64, kernel_size=(1, 1), stride=(1, 1))
              )
              (norm): LayerNorm((384,), eps=1e-05, elementwise_affine=True)
            )
            (my_module_2): Adapter_Attn(
              (project1): Linear(in_features=384, out_features=64, bias=True)
              (project2): Linear(in_features=64, out_features=384, bias=True)
              (dropout): Dropout(p=0.1, inplace=False)
              (adapter_conv): Adapter_Conv(
                (conv1): Conv2d(64, 64, kernel_size=(3, 3), stride=(1, 1), padding=(1, 1), groups=64)
                (conv2): Conv2d(64, 64, kernel_size=(5, 5), stride=(1, 1), padding=(2, 2), groups=64)
                (conv3): Conv2d(64, 64, kernel_size=(7, 7), stride=(1, 1), padding=(3, 3), groups=64)
                (projector): Conv2d(64, 64, kernel_size=(1, 1), stride=(1, 1))
              )
              (norm): LayerNorm((384,), eps=1e-05, elementwise_affine=True)
            )
          )
        )
        (downsample): PatchMerging(
          (reduction): Linear(in_features=1536, out_features=768, bias=False)
          (norm): LayerNorm((1536,), eps=1e-05, elementwise_affine=True)
        )
      )
      (2): BasicLayer(
        (blocks): ModuleList(
          (0): SwinTransformerBlock(
            (norm1): LayerNorm((768,), eps=1e-05, elementwise_affine=True)
            (attn): WindowAttention(
              (qkv): Linear(in_features=768, out_features=2304, bias=True)
              (attn_drop): Dropout(p=0.0, inplace=False)
              (proj): Linear(in_features=768, out_features=768, bias=True)
              (proj_drop): Dropout(p=0.0, inplace=False)
              (softmax): Softmax(dim=-1)
            )
            (drop_path): DropPath(drop_prob=0.035)
            (norm2): LayerNorm((768,), eps=1e-05, elementwise_affine=True)
            (mlp): Mlp(
              (fc1): Linear(in_features=768, out_features=3072, bias=True)
              (act): GELU()
              (fc2): Linear(in_features=3072, out_features=768, bias=True)
              (drop): Dropout(p=0.0, inplace=False)
            )
            (my_module_1): Adapter_Attn(
              (project1): Linear(in_features=768, out_features=64, bias=True)
              (project2): Linear(in_features=64, out_features=768, bias=True)
              (dropout): Dropout(p=0.1, inplace=False)
              (adapter_conv): Adapter_Conv(
                (conv1): Conv2d(64, 64, kernel_size=(3, 3), stride=(1, 1), padding=(1, 1), groups=64)
                (conv2): Conv2d(64, 64, kernel_size=(5, 5), stride=(1, 1), padding=(2, 2), groups=64)
                (conv3): Conv2d(64, 64, kernel_size=(7, 7), stride=(1, 1), padding=(3, 3), groups=64)
                (projector): Conv2d(64, 64, kernel_size=(1, 1), stride=(1, 1))
              )
              (norm): LayerNorm((768,), eps=1e-05, elementwise_affine=True)
            )
            (my_module_2): Adapter_Attn(
              (project1): Linear(in_features=768, out_features=64, bias=True)
              (project2): Linear(in_features=64, out_features=768, bias=True)
              (dropout): Dropout(p=0.1, inplace=False)
              (adapter_conv): Adapter_Conv(
                (conv1): Conv2d(64, 64, kernel_size=(3, 3), stride=(1, 1), padding=(1, 1), groups=64)
                (conv2): Conv2d(64, 64, kernel_size=(5, 5), stride=(1, 1), padding=(2, 2), groups=64)
                (conv3): Conv2d(64, 64, kernel_size=(7, 7), stride=(1, 1), padding=(3, 3), groups=64)
                (projector): Conv2d(64, 64, kernel_size=(1, 1), stride=(1, 1))
              )
              (norm): LayerNorm((768,), eps=1e-05, elementwise_affine=True)
            )
          )
          (1): SwinTransformerBlock(
            (norm1): LayerNorm((768,), eps=1e-05, elementwise_affine=True)
            (attn): WindowAttention(
              (qkv): Linear(in_features=768, out_features=2304, bias=True)
              (attn_drop): Dropout(p=0.0, inplace=False)
              (proj): Linear(in_features=768, out_features=768, bias=True)
              (proj_drop): Dropout(p=0.0, inplace=False)
              (softmax): Softmax(dim=-1)
            )
            (drop_path): DropPath(drop_prob=0.043)
            (norm2): LayerNorm((768,), eps=1e-05, elementwise_affine=True)
            (mlp): Mlp(
              (fc1): Linear(in_features=768, out_features=3072, bias=True)
              (act): GELU()
              (fc2): Linear(in_features=3072, out_features=768, bias=True)
              (drop): Dropout(p=0.0, inplace=False)
            )
            (my_module_1): Adapter_Attn(
              (project1): Linear(in_features=768, out_features=64, bias=True)
              (project2): Linear(in_features=64, out_features=768, bias=True)
              (dropout): Dropout(p=0.1, inplace=False)
              (adapter_conv): Adapter_Conv(
                (conv1): Conv2d(64, 64, kernel_size=(3, 3), stride=(1, 1), padding=(1, 1), groups=64)
                (conv2): Conv2d(64, 64, kernel_size=(5, 5), stride=(1, 1), padding=(2, 2), groups=64)
                (conv3): Conv2d(64, 64, kernel_size=(7, 7), stride=(1, 1), padding=(3, 3), groups=64)
                (projector): Conv2d(64, 64, kernel_size=(1, 1), stride=(1, 1))
              )
              (norm): LayerNorm((768,), eps=1e-05, elementwise_affine=True)
            )
            (my_module_2): Adapter_Attn(
              (project1): Linear(in_features=768, out_features=64, bias=True)
              (project2): Linear(in_features=64, out_features=768, bias=True)
              (dropout): Dropout(p=0.1, inplace=False)
              (adapter_conv): Adapter_Conv(
                (conv1): Conv2d(64, 64, kernel_size=(3, 3), stride=(1, 1), padding=(1, 1), groups=64)
                (conv2): Conv2d(64, 64, kernel_size=(5, 5), stride=(1, 1), padding=(2, 2), groups=64)
                (conv3): Conv2d(64, 64, kernel_size=(7, 7), stride=(1, 1), padding=(3, 3), groups=64)
                (projector): Conv2d(64, 64, kernel_size=(1, 1), stride=(1, 1))
              )
              (norm): LayerNorm((768,), eps=1e-05, elementwise_affine=True)
            )
          )
          (2): SwinTransformerBlock(
            (norm1): LayerNorm((768,), eps=1e-05, elementwise_affine=True)
            (attn): WindowAttention(
              (qkv): Linear(in_features=768, out_features=2304, bias=True)
              (attn_drop): Dropout(p=0.0, inplace=False)
              (proj): Linear(in_features=768, out_features=768, bias=True)
              (proj_drop): Dropout(p=0.0, inplace=False)
              (softmax): Softmax(dim=-1)
            )
            (drop_path): DropPath(drop_prob=0.052)
            (norm2): LayerNorm((768,), eps=1e-05, elementwise_affine=True)
            (mlp): Mlp(
              (fc1): Linear(in_features=768, out_features=3072, bias=True)
              (act): GELU()
              (fc2): Linear(in_features=3072, out_features=768, bias=True)
              (drop): Dropout(p=0.0, inplace=False)
            )
            (my_module_1): Adapter_Attn(
              (project1): Linear(in_features=768, out_features=64, bias=True)
              (project2): Linear(in_features=64, out_features=768, bias=True)
              (dropout): Dropout(p=0.1, inplace=False)
              (adapter_conv): Adapter_Conv(
                (conv1): Conv2d(64, 64, kernel_size=(3, 3), stride=(1, 1), padding=(1, 1), groups=64)
                (conv2): Conv2d(64, 64, kernel_size=(5, 5), stride=(1, 1), padding=(2, 2), groups=64)
                (conv3): Conv2d(64, 64, kernel_size=(7, 7), stride=(1, 1), padding=(3, 3), groups=64)
                (projector): Conv2d(64, 64, kernel_size=(1, 1), stride=(1, 1))
              )
              (norm): LayerNorm((768,), eps=1e-05, elementwise_affine=True)
            )
            (my_module_2): Adapter_Attn(
              (project1): Linear(in_features=768, out_features=64, bias=True)
              (project2): Linear(in_features=64, out_features=768, bias=True)
              (dropout): Dropout(p=0.1, inplace=False)
              (adapter_conv): Adapter_Conv(
                (conv1): Conv2d(64, 64, kernel_size=(3, 3), stride=(1, 1), padding=(1, 1), groups=64)
                (conv2): Conv2d(64, 64, kernel_size=(5, 5), stride=(1, 1), padding=(2, 2), groups=64)
                (conv3): Conv2d(64, 64, kernel_size=(7, 7), stride=(1, 1), padding=(3, 3), groups=64)
                (projector): Conv2d(64, 64, kernel_size=(1, 1), stride=(1, 1))
              )
              (norm): LayerNorm((768,), eps=1e-05, elementwise_affine=True)
            )
          )
          (3): SwinTransformerBlock(
            (norm1): LayerNorm((768,), eps=1e-05, elementwise_affine=True)
            (attn): WindowAttention(
              (qkv): Linear(in_features=768, out_features=2304, bias=True)
              (attn_drop): Dropout(p=0.0, inplace=False)
              (proj): Linear(in_features=768, out_features=768, bias=True)
              (proj_drop): Dropout(p=0.0, inplace=False)
              (softmax): Softmax(dim=-1)
            )
            (drop_path): DropPath(drop_prob=0.061)
            (norm2): LayerNorm((768,), eps=1e-05, elementwise_affine=True)
            (mlp): Mlp(
              (fc1): Linear(in_features=768, out_features=3072, bias=True)
              (act): GELU()
              (fc2): Linear(in_features=3072, out_features=768, bias=True)
              (drop): Dropout(p=0.0, inplace=False)
            )
            (my_module_1): Adapter_Attn(
              (project1): Linear(in_features=768, out_features=64, bias=True)
              (project2): Linear(in_features=64, out_features=768, bias=True)
              (dropout): Dropout(p=0.1, inplace=False)
              (adapter_conv): Adapter_Conv(
                (conv1): Conv2d(64, 64, kernel_size=(3, 3), stride=(1, 1), padding=(1, 1), groups=64)
                (conv2): Conv2d(64, 64, kernel_size=(5, 5), stride=(1, 1), padding=(2, 2), groups=64)
                (conv3): Conv2d(64, 64, kernel_size=(7, 7), stride=(1, 1), padding=(3, 3), groups=64)
                (projector): Conv2d(64, 64, kernel_size=(1, 1), stride=(1, 1))
              )
              (norm): LayerNorm((768,), eps=1e-05, elementwise_affine=True)
            )
            (my_module_2): Adapter_Attn(
              (project1): Linear(in_features=768, out_features=64, bias=True)
              (project2): Linear(in_features=64, out_features=768, bias=True)
              (dropout): Dropout(p=0.1, inplace=False)
              (adapter_conv): Adapter_Conv(
                (conv1): Conv2d(64, 64, kernel_size=(3, 3), stride=(1, 1), padding=(1, 1), groups=64)
                (conv2): Conv2d(64, 64, kernel_size=(5, 5), stride=(1, 1), padding=(2, 2), groups=64)
                (conv3): Conv2d(64, 64, kernel_size=(7, 7), stride=(1, 1), padding=(3, 3), groups=64)
                (projector): Conv2d(64, 64, kernel_size=(1, 1), stride=(1, 1))
              )
              (norm): LayerNorm((768,), eps=1e-05, elementwise_affine=True)
            )
          )
          (4): SwinTransformerBlock(
            (norm1): LayerNorm((768,), eps=1e-05, elementwise_affine=True)
            (attn): WindowAttention(
              (qkv): Linear(in_features=768, out_features=2304, bias=True)
              (attn_drop): Dropout(p=0.0, inplace=False)
              (proj): Linear(in_features=768, out_features=768, bias=True)
              (proj_drop): Dropout(p=0.0, inplace=False)
              (softmax): Softmax(dim=-1)
            )
            (drop_path): DropPath(drop_prob=0.070)
            (norm2): LayerNorm((768,), eps=1e-05, elementwise_affine=True)
            (mlp): Mlp(
              (fc1): Linear(in_features=768, out_features=3072, bias=True)
              (act): GELU()
              (fc2): Linear(in_features=3072, out_features=768, bias=True)
              (drop): Dropout(p=0.0, inplace=False)
            )
            (my_module_1): Adapter_Attn(
              (project1): Linear(in_features=768, out_features=64, bias=True)
              (project2): Linear(in_features=64, out_features=768, bias=True)
              (dropout): Dropout(p=0.1, inplace=False)
              (adapter_conv): Adapter_Conv(
                (conv1): Conv2d(64, 64, kernel_size=(3, 3), stride=(1, 1), padding=(1, 1), groups=64)
                (conv2): Conv2d(64, 64, kernel_size=(5, 5), stride=(1, 1), padding=(2, 2), groups=64)
                (conv3): Conv2d(64, 64, kernel_size=(7, 7), stride=(1, 1), padding=(3, 3), groups=64)
                (projector): Conv2d(64, 64, kernel_size=(1, 1), stride=(1, 1))
              )
              (norm): LayerNorm((768,), eps=1e-05, elementwise_affine=True)
            )
            (my_module_2): Adapter_Attn(
              (project1): Linear(in_features=768, out_features=64, bias=True)
              (project2): Linear(in_features=64, out_features=768, bias=True)
              (dropout): Dropout(p=0.1, inplace=False)
              (adapter_conv): Adapter_Conv(
                (conv1): Conv2d(64, 64, kernel_size=(3, 3), stride=(1, 1), padding=(1, 1), groups=64)
                (conv2): Conv2d(64, 64, kernel_size=(5, 5), stride=(1, 1), padding=(2, 2), groups=64)
                (conv3): Conv2d(64, 64, kernel_size=(7, 7), stride=(1, 1), padding=(3, 3), groups=64)
                (projector): Conv2d(64, 64, kernel_size=(1, 1), stride=(1, 1))
              )
              (norm): LayerNorm((768,), eps=1e-05, elementwise_affine=True)
            )
          )
          (5): SwinTransformerBlock(
            (norm1): LayerNorm((768,), eps=1e-05, elementwise_affine=True)
            (attn): WindowAttention(
              (qkv): Linear(in_features=768, out_features=2304, bias=True)
              (attn_drop): Dropout(p=0.0, inplace=False)
              (proj): Linear(in_features=768, out_features=768, bias=True)
              (proj_drop): Dropout(p=0.0, inplace=False)
              (softmax): Softmax(dim=-1)
            )
            (drop_path): DropPath(drop_prob=0.078)
            (norm2): LayerNorm((768,), eps=1e-05, elementwise_affine=True)
            (mlp): Mlp(
              (fc1): Linear(in_features=768, out_features=3072, bias=True)
              (act): GELU()
              (fc2): Linear(in_features=3072, out_features=768, bias=True)
              (drop): Dropout(p=0.0, inplace=False)
            )
            (my_module_1): Adapter_Attn(
              (project1): Linear(in_features=768, out_features=64, bias=True)
              (project2): Linear(in_features=64, out_features=768, bias=True)
              (dropout): Dropout(p=0.1, inplace=False)
              (adapter_conv): Adapter_Conv(
                (conv1): Conv2d(64, 64, kernel_size=(3, 3), stride=(1, 1), padding=(1, 1), groups=64)
                (conv2): Conv2d(64, 64, kernel_size=(5, 5), stride=(1, 1), padding=(2, 2), groups=64)
                (conv3): Conv2d(64, 64, kernel_size=(7, 7), stride=(1, 1), padding=(3, 3), groups=64)
                (projector): Conv2d(64, 64, kernel_size=(1, 1), stride=(1, 1))
              )
              (norm): LayerNorm((768,), eps=1e-05, elementwise_affine=True)
            )
            (my_module_2): Adapter_Attn(
              (project1): Linear(in_features=768, out_features=64, bias=True)
              (project2): Linear(in_features=64, out_features=768, bias=True)
              (dropout): Dropout(p=0.1, inplace=False)
              (adapter_conv): Adapter_Conv(
                (conv1): Conv2d(64, 64, kernel_size=(3, 3), stride=(1, 1), padding=(1, 1), groups=64)
                (conv2): Conv2d(64, 64, kernel_size=(5, 5), stride=(1, 1), padding=(2, 2), groups=64)
                (conv3): Conv2d(64, 64, kernel_size=(7, 7), stride=(1, 1), padding=(3, 3), groups=64)
                (projector): Conv2d(64, 64, kernel_size=(1, 1), stride=(1, 1))
              )
              (norm): LayerNorm((768,), eps=1e-05, elementwise_affine=True)
            )
          )
          (6): SwinTransformerBlock(
            (norm1): LayerNorm((768,), eps=1e-05, elementwise_affine=True)
            (attn): WindowAttention(
              (qkv): Linear(in_features=768, out_features=2304, bias=True)
              (attn_drop): Dropout(p=0.0, inplace=False)
              (proj): Linear(in_features=768, out_features=768, bias=True)
              (proj_drop): Dropout(p=0.0, inplace=False)
              (softmax): Softmax(dim=-1)
            )
            (drop_path): DropPath(drop_prob=0.087)
            (norm2): LayerNorm((768,), eps=1e-05, elementwise_affine=True)
            (mlp): Mlp(
              (fc1): Linear(in_features=768, out_features=3072, bias=True)
              (act): GELU()
              (fc2): Linear(in_features=3072, out_features=768, bias=True)
              (drop): Dropout(p=0.0, inplace=False)
            )
            (my_module_1): Adapter_Attn(
              (project1): Linear(in_features=768, out_features=64, bias=True)
              (project2): Linear(in_features=64, out_features=768, bias=True)
              (dropout): Dropout(p=0.1, inplace=False)
              (adapter_conv): Adapter_Conv(
                (conv1): Conv2d(64, 64, kernel_size=(3, 3), stride=(1, 1), padding=(1, 1), groups=64)
                (conv2): Conv2d(64, 64, kernel_size=(5, 5), stride=(1, 1), padding=(2, 2), groups=64)
                (conv3): Conv2d(64, 64, kernel_size=(7, 7), stride=(1, 1), padding=(3, 3), groups=64)
                (projector): Conv2d(64, 64, kernel_size=(1, 1), stride=(1, 1))
              )
              (norm): LayerNorm((768,), eps=1e-05, elementwise_affine=True)
            )
            (my_module_2): Adapter_Attn(
              (project1): Linear(in_features=768, out_features=64, bias=True)
              (project2): Linear(in_features=64, out_features=768, bias=True)
              (dropout): Dropout(p=0.1, inplace=False)
              (adapter_conv): Adapter_Conv(
                (conv1): Conv2d(64, 64, kernel_size=(3, 3), stride=(1, 1), padding=(1, 1), groups=64)
                (conv2): Conv2d(64, 64, kernel_size=(5, 5), stride=(1, 1), padding=(2, 2), groups=64)
                (conv3): Conv2d(64, 64, kernel_size=(7, 7), stride=(1, 1), padding=(3, 3), groups=64)
                (projector): Conv2d(64, 64, kernel_size=(1, 1), stride=(1, 1))
              )
              (norm): LayerNorm((768,), eps=1e-05, elementwise_affine=True)
            )
          )
          (7): SwinTransformerBlock(
            (norm1): LayerNorm((768,), eps=1e-05, elementwise_affine=True)
            (attn): WindowAttention(
              (qkv): Linear(in_features=768, out_features=2304, bias=True)
              (attn_drop): Dropout(p=0.0, inplace=False)
              (proj): Linear(in_features=768, out_features=768, bias=True)
              (proj_drop): Dropout(p=0.0, inplace=False)
              (softmax): Softmax(dim=-1)
            )
            (drop_path): DropPath(drop_prob=0.096)
            (norm2): LayerNorm((768,), eps=1e-05, elementwise_affine=True)
            (mlp): Mlp(
              (fc1): Linear(in_features=768, out_features=3072, bias=True)
              (act): GELU()
              (fc2): Linear(in_features=3072, out_features=768, bias=True)
              (drop): Dropout(p=0.0, inplace=False)
            )
            (my_module_1): Adapter_Attn(
              (project1): Linear(in_features=768, out_features=64, bias=True)
              (project2): Linear(in_features=64, out_features=768, bias=True)
              (dropout): Dropout(p=0.1, inplace=False)
              (adapter_conv): Adapter_Conv(
                (conv1): Conv2d(64, 64, kernel_size=(3, 3), stride=(1, 1), padding=(1, 1), groups=64)
                (conv2): Conv2d(64, 64, kernel_size=(5, 5), stride=(1, 1), padding=(2, 2), groups=64)
                (conv3): Conv2d(64, 64, kernel_size=(7, 7), stride=(1, 1), padding=(3, 3), groups=64)
                (projector): Conv2d(64, 64, kernel_size=(1, 1), stride=(1, 1))
              )
              (norm): LayerNorm((768,), eps=1e-05, elementwise_affine=True)
            )
            (my_module_2): Adapter_Attn(
              (project1): Linear(in_features=768, out_features=64, bias=True)
              (project2): Linear(in_features=64, out_features=768, bias=True)
              (dropout): Dropout(p=0.1, inplace=False)
              (adapter_conv): Adapter_Conv(
                (conv1): Conv2d(64, 64, kernel_size=(3, 3), stride=(1, 1), padding=(1, 1), groups=64)
                (conv2): Conv2d(64, 64, kernel_size=(5, 5), stride=(1, 1), padding=(2, 2), groups=64)
                (conv3): Conv2d(64, 64, kernel_size=(7, 7), stride=(1, 1), padding=(3, 3), groups=64)
                (projector): Conv2d(64, 64, kernel_size=(1, 1), stride=(1, 1))
              )
              (norm): LayerNorm((768,), eps=1e-05, elementwise_affine=True)
            )
          )
          (8): SwinTransformerBlock(
            (norm1): LayerNorm((768,), eps=1e-05, elementwise_affine=True)
            (attn): WindowAttention(
              (qkv): Linear(in_features=768, out_features=2304, bias=True)
              (attn_drop): Dropout(p=0.0, inplace=False)
              (proj): Linear(in_features=768, out_features=768, bias=True)
              (proj_drop): Dropout(p=0.0, inplace=False)
              (softmax): Softmax(dim=-1)
            )
            (drop_path): DropPath(drop_prob=0.104)
            (norm2): LayerNorm((768,), eps=1e-05, elementwise_affine=True)
            (mlp): Mlp(
              (fc1): Linear(in_features=768, out_features=3072, bias=True)
              (act): GELU()
              (fc2): Linear(in_features=3072, out_features=768, bias=True)
              (drop): Dropout(p=0.0, inplace=False)
            )
            (my_module_1): Adapter_Attn(
              (project1): Linear(in_features=768, out_features=64, bias=True)
              (project2): Linear(in_features=64, out_features=768, bias=True)
              (dropout): Dropout(p=0.1, inplace=False)
              (adapter_conv): Adapter_Conv(
                (conv1): Conv2d(64, 64, kernel_size=(3, 3), stride=(1, 1), padding=(1, 1), groups=64)
                (conv2): Conv2d(64, 64, kernel_size=(5, 5), stride=(1, 1), padding=(2, 2), groups=64)
                (conv3): Conv2d(64, 64, kernel_size=(7, 7), stride=(1, 1), padding=(3, 3), groups=64)
                (projector): Conv2d(64, 64, kernel_size=(1, 1), stride=(1, 1))
              )
              (norm): LayerNorm((768,), eps=1e-05, elementwise_affine=True)
            )
            (my_module_2): Adapter_Attn(
              (project1): Linear(in_features=768, out_features=64, bias=True)
              (project2): Linear(in_features=64, out_features=768, bias=True)
              (dropout): Dropout(p=0.1, inplace=False)
              (adapter_conv): Adapter_Conv(
                (conv1): Conv2d(64, 64, kernel_size=(3, 3), stride=(1, 1), padding=(1, 1), groups=64)
                (conv2): Conv2d(64, 64, kernel_size=(5, 5), stride=(1, 1), padding=(2, 2), groups=64)
                (conv3): Conv2d(64, 64, kernel_size=(7, 7), stride=(1, 1), padding=(3, 3), groups=64)
                (projector): Conv2d(64, 64, kernel_size=(1, 1), stride=(1, 1))
              )
              (norm): LayerNorm((768,), eps=1e-05, elementwise_affine=True)
            )
          )
          (9): SwinTransformerBlock(
            (norm1): LayerNorm((768,), eps=1e-05, elementwise_affine=True)
            (attn): WindowAttention(
              (qkv): Linear(in_features=768, out_features=2304, bias=True)
              (attn_drop): Dropout(p=0.0, inplace=False)
              (proj): Linear(in_features=768, out_features=768, bias=True)
              (proj_drop): Dropout(p=0.0, inplace=False)
              (softmax): Softmax(dim=-1)
            )
            (drop_path): DropPath(drop_prob=0.113)
            (norm2): LayerNorm((768,), eps=1e-05, elementwise_affine=True)
            (mlp): Mlp(
              (fc1): Linear(in_features=768, out_features=3072, bias=True)
              (act): GELU()
              (fc2): Linear(in_features=3072, out_features=768, bias=True)
              (drop): Dropout(p=0.0, inplace=False)
            )
            (my_module_1): Adapter_Attn(
              (project1): Linear(in_features=768, out_features=64, bias=True)
              (project2): Linear(in_features=64, out_features=768, bias=True)
              (dropout): Dropout(p=0.1, inplace=False)
              (adapter_conv): Adapter_Conv(
                (conv1): Conv2d(64, 64, kernel_size=(3, 3), stride=(1, 1), padding=(1, 1), groups=64)
                (conv2): Conv2d(64, 64, kernel_size=(5, 5), stride=(1, 1), padding=(2, 2), groups=64)
                (conv3): Conv2d(64, 64, kernel_size=(7, 7), stride=(1, 1), padding=(3, 3), groups=64)
                (projector): Conv2d(64, 64, kernel_size=(1, 1), stride=(1, 1))
              )
              (norm): LayerNorm((768,), eps=1e-05, elementwise_affine=True)
            )
            (my_module_2): Adapter_Attn(
              (project1): Linear(in_features=768, out_features=64, bias=True)
              (project2): Linear(in_features=64, out_features=768, bias=True)
              (dropout): Dropout(p=0.1, inplace=False)
              (adapter_conv): Adapter_Conv(
                (conv1): Conv2d(64, 64, kernel_size=(3, 3), stride=(1, 1), padding=(1, 1), groups=64)
                (conv2): Conv2d(64, 64, kernel_size=(5, 5), stride=(1, 1), padding=(2, 2), groups=64)
                (conv3): Conv2d(64, 64, kernel_size=(7, 7), stride=(1, 1), padding=(3, 3), groups=64)
                (projector): Conv2d(64, 64, kernel_size=(1, 1), stride=(1, 1))
              )
              (norm): LayerNorm((768,), eps=1e-05, elementwise_affine=True)
            )
          )
          (10): SwinTransformerBlock(
            (norm1): LayerNorm((768,), eps=1e-05, elementwise_affine=True)
            (attn): WindowAttention(
              (qkv): Linear(in_features=768, out_features=2304, bias=True)
              (attn_drop): Dropout(p=0.0, inplace=False)
              (proj): Linear(in_features=768, out_features=768, bias=True)
              (proj_drop): Dropout(p=0.0, inplace=False)
              (softmax): Softmax(dim=-1)
            )
            (drop_path): DropPath(drop_prob=0.122)
            (norm2): LayerNorm((768,), eps=1e-05, elementwise_affine=True)
            (mlp): Mlp(
              (fc1): Linear(in_features=768, out_features=3072, bias=True)
              (act): GELU()
              (fc2): Linear(in_features=3072, out_features=768, bias=True)
              (drop): Dropout(p=0.0, inplace=False)
            )
            (my_module_1): Adapter_Attn(
              (project1): Linear(in_features=768, out_features=64, bias=True)
              (project2): Linear(in_features=64, out_features=768, bias=True)
              (dropout): Dropout(p=0.1, inplace=False)
              (adapter_conv): Adapter_Conv(
                (conv1): Conv2d(64, 64, kernel_size=(3, 3), stride=(1, 1), padding=(1, 1), groups=64)
                (conv2): Conv2d(64, 64, kernel_size=(5, 5), stride=(1, 1), padding=(2, 2), groups=64)
                (conv3): Conv2d(64, 64, kernel_size=(7, 7), stride=(1, 1), padding=(3, 3), groups=64)
                (projector): Conv2d(64, 64, kernel_size=(1, 1), stride=(1, 1))
              )
              (norm): LayerNorm((768,), eps=1e-05, elementwise_affine=True)
            )
            (my_module_2): Adapter_Attn(
              (project1): Linear(in_features=768, out_features=64, bias=True)
              (project2): Linear(in_features=64, out_features=768, bias=True)
              (dropout): Dropout(p=0.1, inplace=False)
              (adapter_conv): Adapter_Conv(
                (conv1): Conv2d(64, 64, kernel_size=(3, 3), stride=(1, 1), padding=(1, 1), groups=64)
                (conv2): Conv2d(64, 64, kernel_size=(5, 5), stride=(1, 1), padding=(2, 2), groups=64)
                (conv3): Conv2d(64, 64, kernel_size=(7, 7), stride=(1, 1), padding=(3, 3), groups=64)
                (projector): Conv2d(64, 64, kernel_size=(1, 1), stride=(1, 1))
              )
              (norm): LayerNorm((768,), eps=1e-05, elementwise_affine=True)
            )
          )
          (11): SwinTransformerBlock(
            (norm1): LayerNorm((768,), eps=1e-05, elementwise_affine=True)
            (attn): WindowAttention(
              (qkv): Linear(in_features=768, out_features=2304, bias=True)
              (attn_drop): Dropout(p=0.0, inplace=False)
              (proj): Linear(in_features=768, out_features=768, bias=True)
              (proj_drop): Dropout(p=0.0, inplace=False)
              (softmax): Softmax(dim=-1)
            )
            (drop_path): DropPath(drop_prob=0.130)
            (norm2): LayerNorm((768,), eps=1e-05, elementwise_affine=True)
            (mlp): Mlp(
              (fc1): Linear(in_features=768, out_features=3072, bias=True)
              (act): GELU()
              (fc2): Linear(in_features=3072, out_features=768, bias=True)
              (drop): Dropout(p=0.0, inplace=False)
            )
            (my_module_1): Adapter_Attn(
              (project1): Linear(in_features=768, out_features=64, bias=True)
              (project2): Linear(in_features=64, out_features=768, bias=True)
              (dropout): Dropout(p=0.1, inplace=False)
              (adapter_conv): Adapter_Conv(
                (conv1): Conv2d(64, 64, kernel_size=(3, 3), stride=(1, 1), padding=(1, 1), groups=64)
                (conv2): Conv2d(64, 64, kernel_size=(5, 5), stride=(1, 1), padding=(2, 2), groups=64)
                (conv3): Conv2d(64, 64, kernel_size=(7, 7), stride=(1, 1), padding=(3, 3), groups=64)
                (projector): Conv2d(64, 64, kernel_size=(1, 1), stride=(1, 1))
              )
              (norm): LayerNorm((768,), eps=1e-05, elementwise_affine=True)
            )
            (my_module_2): Adapter_Attn(
              (project1): Linear(in_features=768, out_features=64, bias=True)
              (project2): Linear(in_features=64, out_features=768, bias=True)
              (dropout): Dropout(p=0.1, inplace=False)
              (adapter_conv): Adapter_Conv(
                (conv1): Conv2d(64, 64, kernel_size=(3, 3), stride=(1, 1), padding=(1, 1), groups=64)
                (conv2): Conv2d(64, 64, kernel_size=(5, 5), stride=(1, 1), padding=(2, 2), groups=64)
                (conv3): Conv2d(64, 64, kernel_size=(7, 7), stride=(1, 1), padding=(3, 3), groups=64)
                (projector): Conv2d(64, 64, kernel_size=(1, 1), stride=(1, 1))
              )
              (norm): LayerNorm((768,), eps=1e-05, elementwise_affine=True)
            )
          )
          (12): SwinTransformerBlock(
            (norm1): LayerNorm((768,), eps=1e-05, elementwise_affine=True)
            (attn): WindowAttention(
              (qkv): Linear(in_features=768, out_features=2304, bias=True)
              (attn_drop): Dropout(p=0.0, inplace=False)
              (proj): Linear(in_features=768, out_features=768, bias=True)
              (proj_drop): Dropout(p=0.0, inplace=False)
              (softmax): Softmax(dim=-1)
            )
            (drop_path): DropPath(drop_prob=0.139)
            (norm2): LayerNorm((768,), eps=1e-05, elementwise_affine=True)
            (mlp): Mlp(
              (fc1): Linear(in_features=768, out_features=3072, bias=True)
              (act): GELU()
              (fc2): Linear(in_features=3072, out_features=768, bias=True)
              (drop): Dropout(p=0.0, inplace=False)
            )
            (my_module_1): Adapter_Attn(
              (project1): Linear(in_features=768, out_features=64, bias=True)
              (project2): Linear(in_features=64, out_features=768, bias=True)
              (dropout): Dropout(p=0.1, inplace=False)
              (adapter_conv): Adapter_Conv(
                (conv1): Conv2d(64, 64, kernel_size=(3, 3), stride=(1, 1), padding=(1, 1), groups=64)
                (conv2): Conv2d(64, 64, kernel_size=(5, 5), stride=(1, 1), padding=(2, 2), groups=64)
                (conv3): Conv2d(64, 64, kernel_size=(7, 7), stride=(1, 1), padding=(3, 3), groups=64)
                (projector): Conv2d(64, 64, kernel_size=(1, 1), stride=(1, 1))
              )
              (norm): LayerNorm((768,), eps=1e-05, elementwise_affine=True)
            )
            (my_module_2): Adapter_Attn(
              (project1): Linear(in_features=768, out_features=64, bias=True)
              (project2): Linear(in_features=64, out_features=768, bias=True)
              (dropout): Dropout(p=0.1, inplace=False)
              (adapter_conv): Adapter_Conv(
                (conv1): Conv2d(64, 64, kernel_size=(3, 3), stride=(1, 1), padding=(1, 1), groups=64)
                (conv2): Conv2d(64, 64, kernel_size=(5, 5), stride=(1, 1), padding=(2, 2), groups=64)
                (conv3): Conv2d(64, 64, kernel_size=(7, 7), stride=(1, 1), padding=(3, 3), groups=64)
                (projector): Conv2d(64, 64, kernel_size=(1, 1), stride=(1, 1))
              )
              (norm): LayerNorm((768,), eps=1e-05, elementwise_affine=True)
            )
          )
          (13): SwinTransformerBlock(
            (norm1): LayerNorm((768,), eps=1e-05, elementwise_affine=True)
            (attn): WindowAttention(
              (qkv): Linear(in_features=768, out_features=2304, bias=True)
              (attn_drop): Dropout(p=0.0, inplace=False)
              (proj): Linear(in_features=768, out_features=768, bias=True)
              (proj_drop): Dropout(p=0.0, inplace=False)
              (softmax): Softmax(dim=-1)
            )
            (drop_path): DropPath(drop_prob=0.148)
            (norm2): LayerNorm((768,), eps=1e-05, elementwise_affine=True)
            (mlp): Mlp(
              (fc1): Linear(in_features=768, out_features=3072, bias=True)
              (act): GELU()
              (fc2): Linear(in_features=3072, out_features=768, bias=True)
              (drop): Dropout(p=0.0, inplace=False)
            )
            (my_module_1): Adapter_Attn(
              (project1): Linear(in_features=768, out_features=64, bias=True)
              (project2): Linear(in_features=64, out_features=768, bias=True)
              (dropout): Dropout(p=0.1, inplace=False)
              (adapter_conv): Adapter_Conv(
                (conv1): Conv2d(64, 64, kernel_size=(3, 3), stride=(1, 1), padding=(1, 1), groups=64)
                (conv2): Conv2d(64, 64, kernel_size=(5, 5), stride=(1, 1), padding=(2, 2), groups=64)
                (conv3): Conv2d(64, 64, kernel_size=(7, 7), stride=(1, 1), padding=(3, 3), groups=64)
                (projector): Conv2d(64, 64, kernel_size=(1, 1), stride=(1, 1))
              )
              (norm): LayerNorm((768,), eps=1e-05, elementwise_affine=True)
            )
            (my_module_2): Adapter_Attn(
              (project1): Linear(in_features=768, out_features=64, bias=True)
              (project2): Linear(in_features=64, out_features=768, bias=True)
              (dropout): Dropout(p=0.1, inplace=False)
              (adapter_conv): Adapter_Conv(
                (conv1): Conv2d(64, 64, kernel_size=(3, 3), stride=(1, 1), padding=(1, 1), groups=64)
                (conv2): Conv2d(64, 64, kernel_size=(5, 5), stride=(1, 1), padding=(2, 2), groups=64)
                (conv3): Conv2d(64, 64, kernel_size=(7, 7), stride=(1, 1), padding=(3, 3), groups=64)
                (projector): Conv2d(64, 64, kernel_size=(1, 1), stride=(1, 1))
              )
              (norm): LayerNorm((768,), eps=1e-05, elementwise_affine=True)
            )
          )
          (14): SwinTransformerBlock(
            (norm1): LayerNorm((768,), eps=1e-05, elementwise_affine=True)
            (attn): WindowAttention(
              (qkv): Linear(in_features=768, out_features=2304, bias=True)
              (attn_drop): Dropout(p=0.0, inplace=False)
              (proj): Linear(in_features=768, out_features=768, bias=True)
              (proj_drop): Dropout(p=0.0, inplace=False)
              (softmax): Softmax(dim=-1)
            )
            (drop_path): DropPath(drop_prob=0.157)
            (norm2): LayerNorm((768,), eps=1e-05, elementwise_affine=True)
            (mlp): Mlp(
              (fc1): Linear(in_features=768, out_features=3072, bias=True)
              (act): GELU()
              (fc2): Linear(in_features=3072, out_features=768, bias=True)
              (drop): Dropout(p=0.0, inplace=False)
            )
            (my_module_1): Adapter_Attn(
              (project1): Linear(in_features=768, out_features=64, bias=True)
              (project2): Linear(in_features=64, out_features=768, bias=True)
              (dropout): Dropout(p=0.1, inplace=False)
              (adapter_conv): Adapter_Conv(
                (conv1): Conv2d(64, 64, kernel_size=(3, 3), stride=(1, 1), padding=(1, 1), groups=64)
                (conv2): Conv2d(64, 64, kernel_size=(5, 5), stride=(1, 1), padding=(2, 2), groups=64)
                (conv3): Conv2d(64, 64, kernel_size=(7, 7), stride=(1, 1), padding=(3, 3), groups=64)
                (projector): Conv2d(64, 64, kernel_size=(1, 1), stride=(1, 1))
              )
              (norm): LayerNorm((768,), eps=1e-05, elementwise_affine=True)
            )
            (my_module_2): Adapter_Attn(
              (project1): Linear(in_features=768, out_features=64, bias=True)
              (project2): Linear(in_features=64, out_features=768, bias=True)
              (dropout): Dropout(p=0.1, inplace=False)
              (adapter_conv): Adapter_Conv(
                (conv1): Conv2d(64, 64, kernel_size=(3, 3), stride=(1, 1), padding=(1, 1), groups=64)
                (conv2): Conv2d(64, 64, kernel_size=(5, 5), stride=(1, 1), padding=(2, 2), groups=64)
                (conv3): Conv2d(64, 64, kernel_size=(7, 7), stride=(1, 1), padding=(3, 3), groups=64)
                (projector): Conv2d(64, 64, kernel_size=(1, 1), stride=(1, 1))
              )
              (norm): LayerNorm((768,), eps=1e-05, elementwise_affine=True)
            )
          )
          (15): SwinTransformerBlock(
            (norm1): LayerNorm((768,), eps=1e-05, elementwise_affine=True)
            (attn): WindowAttention(
              (qkv): Linear(in_features=768, out_features=2304, bias=True)
              (attn_drop): Dropout(p=0.0, inplace=False)
              (proj): Linear(in_features=768, out_features=768, bias=True)
              (proj_drop): Dropout(p=0.0, inplace=False)
              (softmax): Softmax(dim=-1)
            )
            (drop_path): DropPath(drop_prob=0.165)
            (norm2): LayerNorm((768,), eps=1e-05, elementwise_affine=True)
            (mlp): Mlp(
              (fc1): Linear(in_features=768, out_features=3072, bias=True)
              (act): GELU()
              (fc2): Linear(in_features=3072, out_features=768, bias=True)
              (drop): Dropout(p=0.0, inplace=False)
            )
            (my_module_1): Adapter_Attn(
              (project1): Linear(in_features=768, out_features=64, bias=True)
              (project2): Linear(in_features=64, out_features=768, bias=True)
              (dropout): Dropout(p=0.1, inplace=False)
              (adapter_conv): Adapter_Conv(
                (conv1): Conv2d(64, 64, kernel_size=(3, 3), stride=(1, 1), padding=(1, 1), groups=64)
                (conv2): Conv2d(64, 64, kernel_size=(5, 5), stride=(1, 1), padding=(2, 2), groups=64)
                (conv3): Conv2d(64, 64, kernel_size=(7, 7), stride=(1, 1), padding=(3, 3), groups=64)
                (projector): Conv2d(64, 64, kernel_size=(1, 1), stride=(1, 1))
              )
              (norm): LayerNorm((768,), eps=1e-05, elementwise_affine=True)
            )
            (my_module_2): Adapter_Attn(
              (project1): Linear(in_features=768, out_features=64, bias=True)
              (project2): Linear(in_features=64, out_features=768, bias=True)
              (dropout): Dropout(p=0.1, inplace=False)
              (adapter_conv): Adapter_Conv(
                (conv1): Conv2d(64, 64, kernel_size=(3, 3), stride=(1, 1), padding=(1, 1), groups=64)
                (conv2): Conv2d(64, 64, kernel_size=(5, 5), stride=(1, 1), padding=(2, 2), groups=64)
                (conv3): Conv2d(64, 64, kernel_size=(7, 7), stride=(1, 1), padding=(3, 3), groups=64)
                (projector): Conv2d(64, 64, kernel_size=(1, 1), stride=(1, 1))
              )
              (norm): LayerNorm((768,), eps=1e-05, elementwise_affine=True)
            )
          )
          (16): SwinTransformerBlock(
            (norm1): LayerNorm((768,), eps=1e-05, elementwise_affine=True)
            (attn): WindowAttention(
              (qkv): Linear(in_features=768, out_features=2304, bias=True)
              (attn_drop): Dropout(p=0.0, inplace=False)
              (proj): Linear(in_features=768, out_features=768, bias=True)
              (proj_drop): Dropout(p=0.0, inplace=False)
              (softmax): Softmax(dim=-1)
            )
            (drop_path): DropPath(drop_prob=0.174)
            (norm2): LayerNorm((768,), eps=1e-05, elementwise_affine=True)
            (mlp): Mlp(
              (fc1): Linear(in_features=768, out_features=3072, bias=True)
              (act): GELU()
              (fc2): Linear(in_features=3072, out_features=768, bias=True)
              (drop): Dropout(p=0.0, inplace=False)
            )
            (my_module_1): Adapter_Attn(
              (project1): Linear(in_features=768, out_features=64, bias=True)
              (project2): Linear(in_features=64, out_features=768, bias=True)
              (dropout): Dropout(p=0.1, inplace=False)
              (adapter_conv): Adapter_Conv(
                (conv1): Conv2d(64, 64, kernel_size=(3, 3), stride=(1, 1), padding=(1, 1), groups=64)
                (conv2): Conv2d(64, 64, kernel_size=(5, 5), stride=(1, 1), padding=(2, 2), groups=64)
                (conv3): Conv2d(64, 64, kernel_size=(7, 7), stride=(1, 1), padding=(3, 3), groups=64)
                (projector): Conv2d(64, 64, kernel_size=(1, 1), stride=(1, 1))
              )
              (norm): LayerNorm((768,), eps=1e-05, elementwise_affine=True)
            )
            (my_module_2): Adapter_Attn(
              (project1): Linear(in_features=768, out_features=64, bias=True)
              (project2): Linear(in_features=64, out_features=768, bias=True)
              (dropout): Dropout(p=0.1, inplace=False)
              (adapter_conv): Adapter_Conv(
                (conv1): Conv2d(64, 64, kernel_size=(3, 3), stride=(1, 1), padding=(1, 1), groups=64)
                (conv2): Conv2d(64, 64, kernel_size=(5, 5), stride=(1, 1), padding=(2, 2), groups=64)
                (conv3): Conv2d(64, 64, kernel_size=(7, 7), stride=(1, 1), padding=(3, 3), groups=64)
                (projector): Conv2d(64, 64, kernel_size=(1, 1), stride=(1, 1))
              )
              (norm): LayerNorm((768,), eps=1e-05, elementwise_affine=True)
            )
          )
          (17): SwinTransformerBlock(
            (norm1): LayerNorm((768,), eps=1e-05, elementwise_affine=True)
            (attn): WindowAttention(
              (qkv): Linear(in_features=768, out_features=2304, bias=True)
              (attn_drop): Dropout(p=0.0, inplace=False)
              (proj): Linear(in_features=768, out_features=768, bias=True)
              (proj_drop): Dropout(p=0.0, inplace=False)
              (softmax): Softmax(dim=-1)
            )
            (drop_path): DropPath(drop_prob=0.183)
            (norm2): LayerNorm((768,), eps=1e-05, elementwise_affine=True)
            (mlp): Mlp(
              (fc1): Linear(in_features=768, out_features=3072, bias=True)
              (act): GELU()
              (fc2): Linear(in_features=3072, out_features=768, bias=True)
              (drop): Dropout(p=0.0, inplace=False)
            )
            (my_module_1): Adapter_Attn(
              (project1): Linear(in_features=768, out_features=64, bias=True)
              (project2): Linear(in_features=64, out_features=768, bias=True)
              (dropout): Dropout(p=0.1, inplace=False)
              (adapter_conv): Adapter_Conv(
                (conv1): Conv2d(64, 64, kernel_size=(3, 3), stride=(1, 1), padding=(1, 1), groups=64)
                (conv2): Conv2d(64, 64, kernel_size=(5, 5), stride=(1, 1), padding=(2, 2), groups=64)
                (conv3): Conv2d(64, 64, kernel_size=(7, 7), stride=(1, 1), padding=(3, 3), groups=64)
                (projector): Conv2d(64, 64, kernel_size=(1, 1), stride=(1, 1))
              )
              (norm): LayerNorm((768,), eps=1e-05, elementwise_affine=True)
            )
            (my_module_2): Adapter_Attn(
              (project1): Linear(in_features=768, out_features=64, bias=True)
              (project2): Linear(in_features=64, out_features=768, bias=True)
              (dropout): Dropout(p=0.1, inplace=False)
              (adapter_conv): Adapter_Conv(
                (conv1): Conv2d(64, 64, kernel_size=(3, 3), stride=(1, 1), padding=(1, 1), groups=64)
                (conv2): Conv2d(64, 64, kernel_size=(5, 5), stride=(1, 1), padding=(2, 2), groups=64)
                (conv3): Conv2d(64, 64, kernel_size=(7, 7), stride=(1, 1), padding=(3, 3), groups=64)
                (projector): Conv2d(64, 64, kernel_size=(1, 1), stride=(1, 1))
              )
              (norm): LayerNorm((768,), eps=1e-05, elementwise_affine=True)
            )
          )
        )
        (downsample): PatchMerging(
          (reduction): Linear(in_features=3072, out_features=1536, bias=False)
          (norm): LayerNorm((3072,), eps=1e-05, elementwise_affine=True)
        )
      )
      (3): BasicLayer(
        (blocks): ModuleList(
          (0): SwinTransformerBlock(
            (norm1): LayerNorm((1536,), eps=1e-05, elementwise_affine=True)
            (attn): WindowAttention(
              (qkv): Linear(in_features=1536, out_features=4608, bias=True)
              (attn_drop): Dropout(p=0.0, inplace=False)
              (proj): Linear(in_features=1536, out_features=1536, bias=True)
              (proj_drop): Dropout(p=0.0, inplace=False)
              (softmax): Softmax(dim=-1)
            )
            (drop_path): DropPath(drop_prob=0.191)
            (norm2): LayerNorm((1536,), eps=1e-05, elementwise_affine=True)
            (mlp): Mlp(
              (fc1): Linear(in_features=1536, out_features=6144, bias=True)
              (act): GELU()
              (fc2): Linear(in_features=6144, out_features=1536, bias=True)
              (drop): Dropout(p=0.0, inplace=False)
            )
            (my_module_1): Adapter_Attn(
              (project1): Linear(in_features=1536, out_features=64, bias=True)
              (project2): Linear(in_features=64, out_features=1536, bias=True)
              (dropout): Dropout(p=0.1, inplace=False)
              (adapter_conv): Adapter_Conv(
                (conv1): Conv2d(64, 64, kernel_size=(3, 3), stride=(1, 1), padding=(1, 1), groups=64)
                (conv2): Conv2d(64, 64, kernel_size=(5, 5), stride=(1, 1), padding=(2, 2), groups=64)
                (conv3): Conv2d(64, 64, kernel_size=(7, 7), stride=(1, 1), padding=(3, 3), groups=64)
                (projector): Conv2d(64, 64, kernel_size=(1, 1), stride=(1, 1))
              )
              (norm): LayerNorm((1536,), eps=1e-05, elementwise_affine=True)
            )
            (my_module_2): Adapter_Attn(
              (project1): Linear(in_features=1536, out_features=64, bias=True)
              (project2): Linear(in_features=64, out_features=1536, bias=True)
              (dropout): Dropout(p=0.1, inplace=False)
              (adapter_conv): Adapter_Conv(
                (conv1): Conv2d(64, 64, kernel_size=(3, 3), stride=(1, 1), padding=(1, 1), groups=64)
                (conv2): Conv2d(64, 64, kernel_size=(5, 5), stride=(1, 1), padding=(2, 2), groups=64)
                (conv3): Conv2d(64, 64, kernel_size=(7, 7), stride=(1, 1), padding=(3, 3), groups=64)
                (projector): Conv2d(64, 64, kernel_size=(1, 1), stride=(1, 1))
              )
              (norm): LayerNorm((1536,), eps=1e-05, elementwise_affine=True)
            )
          )
          (1): SwinTransformerBlock(
            (norm1): LayerNorm((1536,), eps=1e-05, elementwise_affine=True)
            (attn): WindowAttention(
              (qkv): Linear(in_features=1536, out_features=4608, bias=True)
              (attn_drop): Dropout(p=0.0, inplace=False)
              (proj): Linear(in_features=1536, out_features=1536, bias=True)
              (proj_drop): Dropout(p=0.0, inplace=False)
              (softmax): Softmax(dim=-1)
            )
            (drop_path): DropPath(drop_prob=0.200)
            (norm2): LayerNorm((1536,), eps=1e-05, elementwise_affine=True)
            (mlp): Mlp(
              (fc1): Linear(in_features=1536, out_features=6144, bias=True)
              (act): GELU()
              (fc2): Linear(in_features=6144, out_features=1536, bias=True)
              (drop): Dropout(p=0.0, inplace=False)
            )
            (my_module_1): Adapter_Attn(
              (project1): Linear(in_features=1536, out_features=64, bias=True)
              (project2): Linear(in_features=64, out_features=1536, bias=True)
              (dropout): Dropout(p=0.1, inplace=False)
              (adapter_conv): Adapter_Conv(
                (conv1): Conv2d(64, 64, kernel_size=(3, 3), stride=(1, 1), padding=(1, 1), groups=64)
                (conv2): Conv2d(64, 64, kernel_size=(5, 5), stride=(1, 1), padding=(2, 2), groups=64)
                (conv3): Conv2d(64, 64, kernel_size=(7, 7), stride=(1, 1), padding=(3, 3), groups=64)
                (projector): Conv2d(64, 64, kernel_size=(1, 1), stride=(1, 1))
              )
              (norm): LayerNorm((1536,), eps=1e-05, elementwise_affine=True)
            )
            (my_module_2): Adapter_Attn(
              (project1): Linear(in_features=1536, out_features=64, bias=True)
              (project2): Linear(in_features=64, out_features=1536, bias=True)
              (dropout): Dropout(p=0.1, inplace=False)
              (adapter_conv): Adapter_Conv(
                (conv1): Conv2d(64, 64, kernel_size=(3, 3), stride=(1, 1), padding=(1, 1), groups=64)
                (conv2): Conv2d(64, 64, kernel_size=(5, 5), stride=(1, 1), padding=(2, 2), groups=64)
                (conv3): Conv2d(64, 64, kernel_size=(7, 7), stride=(1, 1), padding=(3, 3), groups=64)
                (projector): Conv2d(64, 64, kernel_size=(1, 1), stride=(1, 1))
              )
              (norm): LayerNorm((1536,), eps=1e-05, elementwise_affine=True)
            )
          )
        )
      )
    )
    (norm0): LayerNorm((192,), eps=1e-05, elementwise_affine=True)
    (norm1): LayerNorm((384,), eps=1e-05, elementwise_affine=True)
    (norm2): LayerNorm((768,), eps=1e-05, elementwise_affine=True)
    (norm3): LayerNorm((1536,), eps=1e-05, elementwise_affine=True)
  )
  (decode_head): UPerHead(
    input_transform=multiple_select, ignore_index=255, align_corners=False
    (loss_decode): CrossEntropyLoss()
    (conv_seg): Conv2d(512, 150, kernel_size=(1, 1), stride=(1, 1))
    (dropout): Dropout2d(p=0.1, inplace=False)
    (psp_modules): PPM(
      (0): Sequential(
        (0): AdaptiveAvgPool2d(output_size=1)
        (1): ConvModule(
          (conv): Conv2d(1536, 512, kernel_size=(1, 1), stride=(1, 1), bias=False)
          (bn): SyncBatchNorm(512, eps=1e-05, momentum=0.1, affine=True, track_running_stats=True)
          (activate): ReLU(inplace=True)
        )
      )
      (1): Sequential(
        (0): AdaptiveAvgPool2d(output_size=2)
        (1): ConvModule(
          (conv): Conv2d(1536, 512, kernel_size=(1, 1), stride=(1, 1), bias=False)
          (bn): SyncBatchNorm(512, eps=1e-05, momentum=0.1, affine=True, track_running_stats=True)
          (activate): ReLU(inplace=True)
        )
      )
      (2): Sequential(
        (0): AdaptiveAvgPool2d(output_size=3)
        (1): ConvModule(
          (conv): Conv2d(1536, 512, kernel_size=(1, 1), stride=(1, 1), bias=False)
          (bn): SyncBatchNorm(512, eps=1e-05, momentum=0.1, affine=True, track_running_stats=True)
          (activate): ReLU(inplace=True)
        )
      )
      (3): Sequential(
        (0): AdaptiveAvgPool2d(output_size=6)
        (1): ConvModule(
          (conv): Conv2d(1536, 512, kernel_size=(1, 1), stride=(1, 1), bias=False)
          (bn): SyncBatchNorm(512, eps=1e-05, momentum=0.1, affine=True, track_running_stats=True)
          (activate): ReLU(inplace=True)
        )
      )
    )
    (bottleneck): ConvModule(
      (conv): Conv2d(3584, 512, kernel_size=(3, 3), stride=(1, 1), padding=(1, 1), bias=False)
      (bn): SyncBatchNorm(512, eps=1e-05, momentum=0.1, affine=True, track_running_stats=True)
      (activate): ReLU(inplace=True)
    )
    (lateral_convs): ModuleList(
      (0): ConvModule(
        (conv): Conv2d(192, 512, kernel_size=(1, 1), stride=(1, 1), bias=False)
        (bn): SyncBatchNorm(512, eps=1e-05, momentum=0.1, affine=True, track_running_stats=True)
        (activate): ReLU()
      )
      (1): ConvModule(
        (conv): Conv2d(384, 512, kernel_size=(1, 1), stride=(1, 1), bias=False)
        (bn): SyncBatchNorm(512, eps=1e-05, momentum=0.1, affine=True, track_running_stats=True)
        (activate): ReLU()
      )
      (2): ConvModule(
        (conv): Conv2d(768, 512, kernel_size=(1, 1), stride=(1, 1), bias=False)
        (bn): SyncBatchNorm(512, eps=1e-05, momentum=0.1, affine=True, track_running_stats=True)
        (activate): ReLU()
      )
    )
    (fpn_convs): ModuleList(
      (0): ConvModule(
        (conv): Conv2d(512, 512, kernel_size=(3, 3), stride=(1, 1), padding=(1, 1), bias=False)
        (bn): SyncBatchNorm(512, eps=1e-05, momentum=0.1, affine=True, track_running_stats=True)
        (activate): ReLU()
      )
      (1): ConvModule(
        (conv): Conv2d(512, 512, kernel_size=(3, 3), stride=(1, 1), padding=(1, 1), bias=False)
        (bn): SyncBatchNorm(512, eps=1e-05, momentum=0.1, affine=True, track_running_stats=True)
        (activate): ReLU()
      )
      (2): ConvModule(
        (conv): Conv2d(512, 512, kernel_size=(3, 3), stride=(1, 1), padding=(1, 1), bias=False)
        (bn): SyncBatchNorm(512, eps=1e-05, momentum=0.1, affine=True, track_running_stats=True)
        (activate): ReLU()
      )
    )
    (fpn_bottleneck): ConvModule(
      (conv): Conv2d(2048, 512, kernel_size=(3, 3), stride=(1, 1), padding=(1, 1), bias=False)
      (bn): SyncBatchNorm(512, eps=1e-05, momentum=0.1, affine=True, track_running_stats=True)
      (activate): ReLU(inplace=True)
    )
  )
  (auxiliary_head): FCNHead(
    input_transform=None, ignore_index=255, align_corners=False
    (loss_decode): CrossEntropyLoss()
    (conv_seg): Conv2d(256, 150, kernel_size=(1, 1), stride=(1, 1))
    (dropout): Dropout2d(p=0.1, inplace=False)
    (convs): Sequential(
      (0): ConvModule(
        (conv): Conv2d(768, 256, kernel_size=(3, 3), stride=(1, 1), padding=(1, 1), bias=False)
        (bn): SyncBatchNorm(256, eps=1e-05, momentum=0.1, affine=True, track_running_stats=True)
        (activate): ReLU(inplace=True)
      )
    )
  )
)
----------------------Print All Param Layers Start---------------------------
backbone.patch_embed.proj.weight
backbone.patch_embed.proj.bias
backbone.patch_embed.norm.weight
…
